{
  "modelTopology": {
    "model_config": {
      "name": "sequential",
      "trainable": true,
      "dtype": {
        "module": "keras",
        "class_name": "DTypePolicy",
        "config": {
          "name": "float32"
        },
        "registered_name": null
      },
      "layers": [
        {
          "module": "keras.layers",
          "class_name": "InputLayer",
          "config": {
            "batch_shape": [
              null,
              224,
              224,
              3
            ],
            "dtype": "float32",
            "sparse": false,
            "ragged": false,
            "name": "input_layer_1",
            "optional": false
          },
          "registered_name": null
        },
        {
          "module": "keras.src.models.functional",
          "class_name": "Functional",
          "config": {
            "name": "mobilenetv2_1.00_224",
            "trainable": false,
            "layers": [
              {
                "module": "keras.layers",
                "class_name": "InputLayer",
                "config": {
                  "batch_shape": [
                    null,
                    224,
                    224,
                    3
                  ],
                  "dtype": "float32",
                  "sparse": false,
                  "ragged": false,
                  "name": "input_layer",
                  "optional": false
                },
                "registered_name": null,
                "name": "input_layer",
                "inbound_nodes": []
              },
              {
                "module": "keras.layers",
                "class_name": "Conv2D",
                "config": {
                  "name": "Conv1",
                  "trainable": false,
                  "dtype": {
                    "module": "keras",
                    "class_name": "DTypePolicy",
                    "config": {
                      "name": "float32"
                    },
                    "registered_name": null
                  },
                  "filters": 32,
                  "kernel_size": [
                    3,
                    3
                  ],
                  "strides": [
                    2,
                    2
                  ],
                  "padding": "same",
                  "data_format": "channels_last",
                  "dilation_rate": [
                    1,
                    1
                  ],
                  "groups": 1,
                  "activation": "linear",
                  "use_bias": false,
                  "kernel_initializer": {
                    "module": "keras.initializers",
                    "class_name": "GlorotUniform",
                    "config": {
                      "seed": null
                    },
                    "registered_name": null
                  },
                  "bias_initializer": {
                    "module": "keras.initializers",
                    "class_name": "Zeros",
                    "config": {},
                    "registered_name": null
                  },
                  "kernel_regularizer": null,
                  "bias_regularizer": null,
                  "activity_regularizer": null,
                  "kernel_constraint": null,
                  "bias_constraint": null
                },
                "registered_name": null,
                "build_config": {
                  "input_shape": [
                    null,
                    224,
                    224,
                    3
                  ]
                },
                "name": "Conv1",
                "inbound_nodes": [
                  {
                    "args": [
                      {
                        "class_name": "__keras_tensor__",
                        "config": {
                          "shape": [
                            null,
                            224,
                            224,
                            3
                          ],
                          "dtype": "float32",
                          "keras_history": [
                            "input_layer",
                            0,
                            0
                          ]
                        }
                      }
                    ],
                    "kwargs": {}
                  }
                ]
              },
              {
                "module": "keras.layers",
                "class_name": "BatchNormalization",
                "config": {
                  "name": "bn_Conv1",
                  "trainable": false,
                  "dtype": {
                    "module": "keras",
                    "class_name": "DTypePolicy",
                    "config": {
                      "name": "float32"
                    },
                    "registered_name": null
                  },
                  "axis": -1,
                  "momentum": 0.999,
                  "epsilon": 0.001,
                  "center": true,
                  "scale": true,
                  "beta_initializer": {
                    "module": "keras.initializers",
                    "class_name": "Zeros",
                    "config": {},
                    "registered_name": null
                  },
                  "gamma_initializer": {
                    "module": "keras.initializers",
                    "class_name": "Ones",
                    "config": {},
                    "registered_name": null
                  },
                  "moving_mean_initializer": {
                    "module": "keras.initializers",
                    "class_name": "Zeros",
                    "config": {},
                    "registered_name": null
                  },
                  "moving_variance_initializer": {
                    "module": "keras.initializers",
                    "class_name": "Ones",
                    "config": {},
                    "registered_name": null
                  },
                  "beta_regularizer": null,
                  "gamma_regularizer": null,
                  "beta_constraint": null,
                  "gamma_constraint": null,
                  "synchronized": false,
                  "renorm": false,
                  "renorm_clipping": null,
                  "renorm_momentum": 0.99
                },
                "registered_name": null,
                "build_config": {
                  "input_shape": [
                    null,
                    112,
                    112,
                    32
                  ]
                },
                "name": "bn_Conv1",
                "inbound_nodes": [
                  {
                    "args": [
                      {
                        "class_name": "__keras_tensor__",
                        "config": {
                          "shape": [
                            null,
                            112,
                            112,
                            32
                          ],
                          "dtype": "float32",
                          "keras_history": [
                            "Conv1",
                            0,
                            0
                          ]
                        }
                      }
                    ],
                    "kwargs": {
                      "mask": null
                    }
                  }
                ]
              },
              {
                "module": "keras.layers",
                "class_name": "ReLU",
                "config": {
                  "name": "Conv1_relu",
                  "trainable": false,
                  "dtype": {
                    "module": "keras",
                    "class_name": "DTypePolicy",
                    "config": {
                      "name": "float32"
                    },
                    "registered_name": null
                  },
                  "max_value": 6.0,
                  "negative_slope": 0.0,
                  "threshold": 0.0
                },
                "registered_name": null,
                "name": "Conv1_relu",
                "inbound_nodes": [
                  {
                    "args": [
                      {
                        "class_name": "__keras_tensor__",
                        "config": {
                          "shape": [
                            null,
                            112,
                            112,
                            32
                          ],
                          "dtype": "float32",
                          "keras_history": [
                            "bn_Conv1",
                            0,
                            0
                          ]
                        }
                      }
                    ],
                    "kwargs": {}
                  }
                ]
              },
              {
                "module": "keras.layers",
                "class_name": "DepthwiseConv2D",
                "config": {
                  "name": "expanded_conv_depthwise",
                  "trainable": false,
                  "dtype": {
                    "module": "keras",
                    "class_name": "DTypePolicy",
                    "config": {
                      "name": "float32"
                    },
                    "registered_name": null
                  },
                  "depth_multiplier": 1,
                  "kernel_size": [
                    3,
                    3
                  ],
                  "strides": [
                    1,
                    1
                  ],
                  "padding": "same",
                  "data_format": "channels_last",
                  "dilation_rate": [
                    1,
                    1
                  ],
                  "activation": "linear",
                  "use_bias": false,
                  "depthwise_initializer": {
                    "module": "keras.initializers",
                    "class_name": "GlorotUniform",
                    "config": {
                      "seed": null
                    },
                    "registered_name": null
                  },
                  "bias_initializer": {
                    "module": "keras.initializers",
                    "class_name": "Zeros",
                    "config": {},
                    "registered_name": null
                  },
                  "depthwise_regularizer": null,
                  "bias_regularizer": null,
                  "activity_regularizer": null,
                  "depthwise_constraint": null,
                  "bias_constraint": null
                },
                "registered_name": null,
                "build_config": {
                  "input_shape": [
                    null,
                    112,
                    112,
                    32
                  ]
                },
                "name": "expanded_conv_depthwise",
                "inbound_nodes": [
                  {
                    "args": [
                      {
                        "class_name": "__keras_tensor__",
                        "config": {
                          "shape": [
                            null,
                            112,
                            112,
                            32
                          ],
                          "dtype": "float32",
                          "keras_history": [
                            "Conv1_relu",
                            0,
                            0
                          ]
                        }
                      }
                    ],
                    "kwargs": {}
                  }
                ]
              },
              {
                "module": "keras.layers",
                "class_name": "BatchNormalization",
                "config": {
                  "name": "expanded_conv_depthwise_BN",
                  "trainable": false,
                  "dtype": {
                    "module": "keras",
                    "class_name": "DTypePolicy",
                    "config": {
                      "name": "float32"
                    },
                    "registered_name": null
                  },
                  "axis": -1,
                  "momentum": 0.999,
                  "epsilon": 0.001,
                  "center": true,
                  "scale": true,
                  "beta_initializer": {
                    "module": "keras.initializers",
                    "class_name": "Zeros",
                    "config": {},
                    "registered_name": null
                  },
                  "gamma_initializer": {
                    "module": "keras.initializers",
                    "class_name": "Ones",
                    "config": {},
                    "registered_name": null
                  },
                  "moving_mean_initializer": {
                    "module": "keras.initializers",
                    "class_name": "Zeros",
                    "config": {},
                    "registered_name": null
                  },
                  "moving_variance_initializer": {
                    "module": "keras.initializers",
                    "class_name": "Ones",
                    "config": {},
                    "registered_name": null
                  },
                  "beta_regularizer": null,
                  "gamma_regularizer": null,
                  "beta_constraint": null,
                  "gamma_constraint": null,
                  "synchronized": false,
                  "renorm": false,
                  "renorm_clipping": null,
                  "renorm_momentum": 0.99
                },
                "registered_name": null,
                "build_config": {
                  "input_shape": [
                    null,
                    112,
                    112,
                    32
                  ]
                },
                "name": "expanded_conv_depthwise_BN",
                "inbound_nodes": [
                  {
                    "args": [
                      {
                        "class_name": "__keras_tensor__",
                        "config": {
                          "shape": [
                            null,
                            112,
                            112,
                            32
                          ],
                          "dtype": "float32",
                          "keras_history": [
                            "expanded_conv_depthwise",
                            0,
                            0
                          ]
                        }
                      }
                    ],
                    "kwargs": {
                      "mask": null
                    }
                  }
                ]
              },
              {
                "module": "keras.layers",
                "class_name": "ReLU",
                "config": {
                  "name": "expanded_conv_depthwise_relu",
                  "trainable": false,
                  "dtype": {
                    "module": "keras",
                    "class_name": "DTypePolicy",
                    "config": {
                      "name": "float32"
                    },
                    "registered_name": null
                  },
                  "max_value": 6.0,
                  "negative_slope": 0.0,
                  "threshold": 0.0
                },
                "registered_name": null,
                "name": "expanded_conv_depthwise_relu",
                "inbound_nodes": [
                  {
                    "args": [
                      {
                        "class_name": "__keras_tensor__",
                        "config": {
                          "shape": [
                            null,
                            112,
                            112,
                            32
                          ],
                          "dtype": "float32",
                          "keras_history": [
                            "expanded_conv_depthwise_BN",
                            0,
                            0
                          ]
                        }
                      }
                    ],
                    "kwargs": {}
                  }
                ]
              },
              {
                "module": "keras.layers",
                "class_name": "Conv2D",
                "config": {
                  "name": "expanded_conv_project",
                  "trainable": false,
                  "dtype": {
                    "module": "keras",
                    "class_name": "DTypePolicy",
                    "config": {
                      "name": "float32"
                    },
                    "registered_name": null
                  },
                  "filters": 16,
                  "kernel_size": [
                    1,
                    1
                  ],
                  "strides": [
                    1,
                    1
                  ],
                  "padding": "same",
                  "data_format": "channels_last",
                  "dilation_rate": [
                    1,
                    1
                  ],
                  "groups": 1,
                  "activation": "linear",
                  "use_bias": false,
                  "kernel_initializer": {
                    "module": "keras.initializers",
                    "class_name": "GlorotUniform",
                    "config": {
                      "seed": null
                    },
                    "registered_name": null
                  },
                  "bias_initializer": {
                    "module": "keras.initializers",
                    "class_name": "Zeros",
                    "config": {},
                    "registered_name": null
                  },
                  "kernel_regularizer": null,
                  "bias_regularizer": null,
                  "activity_regularizer": null,
                  "kernel_constraint": null,
                  "bias_constraint": null
                },
                "registered_name": null,
                "build_config": {
                  "input_shape": [
                    null,
                    112,
                    112,
                    32
                  ]
                },
                "name": "expanded_conv_project",
                "inbound_nodes": [
                  {
                    "args": [
                      {
                        "class_name": "__keras_tensor__",
                        "config": {
                          "shape": [
                            null,
                            112,
                            112,
                            32
                          ],
                          "dtype": "float32",
                          "keras_history": [
                            "expanded_conv_depthwise_relu",
                            0,
                            0
                          ]
                        }
                      }
                    ],
                    "kwargs": {}
                  }
                ]
              },
              {
                "module": "keras.layers",
                "class_name": "BatchNormalization",
                "config": {
                  "name": "expanded_conv_project_BN",
                  "trainable": false,
                  "dtype": {
                    "module": "keras",
                    "class_name": "DTypePolicy",
                    "config": {
                      "name": "float32"
                    },
                    "registered_name": null
                  },
                  "axis": -1,
                  "momentum": 0.999,
                  "epsilon": 0.001,
                  "center": true,
                  "scale": true,
                  "beta_initializer": {
                    "module": "keras.initializers",
                    "class_name": "Zeros",
                    "config": {},
                    "registered_name": null
                  },
                  "gamma_initializer": {
                    "module": "keras.initializers",
                    "class_name": "Ones",
                    "config": {},
                    "registered_name": null
                  },
                  "moving_mean_initializer": {
                    "module": "keras.initializers",
                    "class_name": "Zeros",
                    "config": {},
                    "registered_name": null
                  },
                  "moving_variance_initializer": {
                    "module": "keras.initializers",
                    "class_name": "Ones",
                    "config": {},
                    "registered_name": null
                  },
                  "beta_regularizer": null,
                  "gamma_regularizer": null,
                  "beta_constraint": null,
                  "gamma_constraint": null,
                  "synchronized": false,
                  "renorm": false,
                  "renorm_clipping": null,
                  "renorm_momentum": 0.99
                },
                "registered_name": null,
                "build_config": {
                  "input_shape": [
                    null,
                    112,
                    112,
                    16
                  ]
                },
                "name": "expanded_conv_project_BN",
                "inbound_nodes": [
                  {
                    "args": [
                      {
                        "class_name": "__keras_tensor__",
                        "config": {
                          "shape": [
                            null,
                            112,
                            112,
                            16
                          ],
                          "dtype": "float32",
                          "keras_history": [
                            "expanded_conv_project",
                            0,
                            0
                          ]
                        }
                      }
                    ],
                    "kwargs": {
                      "mask": null
                    }
                  }
                ]
              },
              {
                "module": "keras.layers",
                "class_name": "Conv2D",
                "config": {
                  "name": "block_1_expand",
                  "trainable": false,
                  "dtype": {
                    "module": "keras",
                    "class_name": "DTypePolicy",
                    "config": {
                      "name": "float32"
                    },
                    "registered_name": null
                  },
                  "filters": 96,
                  "kernel_size": [
                    1,
                    1
                  ],
                  "strides": [
                    1,
                    1
                  ],
                  "padding": "same",
                  "data_format": "channels_last",
                  "dilation_rate": [
                    1,
                    1
                  ],
                  "groups": 1,
                  "activation": "linear",
                  "use_bias": false,
                  "kernel_initializer": {
                    "module": "keras.initializers",
                    "class_name": "GlorotUniform",
                    "config": {
                      "seed": null
                    },
                    "registered_name": null
                  },
                  "bias_initializer": {
                    "module": "keras.initializers",
                    "class_name": "Zeros",
                    "config": {},
                    "registered_name": null
                  },
                  "kernel_regularizer": null,
                  "bias_regularizer": null,
                  "activity_regularizer": null,
                  "kernel_constraint": null,
                  "bias_constraint": null
                },
                "registered_name": null,
                "build_config": {
                  "input_shape": [
                    null,
                    112,
                    112,
                    16
                  ]
                },
                "name": "block_1_expand",
                "inbound_nodes": [
                  {
                    "args": [
                      {
                        "class_name": "__keras_tensor__",
                        "config": {
                          "shape": [
                            null,
                            112,
                            112,
                            16
                          ],
                          "dtype": "float32",
                          "keras_history": [
                            "expanded_conv_project_BN",
                            0,
                            0
                          ]
                        }
                      }
                    ],
                    "kwargs": {}
                  }
                ]
              },
              {
                "module": "keras.layers",
                "class_name": "BatchNormalization",
                "config": {
                  "name": "block_1_expand_BN",
                  "trainable": false,
                  "dtype": {
                    "module": "keras",
                    "class_name": "DTypePolicy",
                    "config": {
                      "name": "float32"
                    },
                    "registered_name": null
                  },
                  "axis": -1,
                  "momentum": 0.999,
                  "epsilon": 0.001,
                  "center": true,
                  "scale": true,
                  "beta_initializer": {
                    "module": "keras.initializers",
                    "class_name": "Zeros",
                    "config": {},
                    "registered_name": null
                  },
                  "gamma_initializer": {
                    "module": "keras.initializers",
                    "class_name": "Ones",
                    "config": {},
                    "registered_name": null
                  },
                  "moving_mean_initializer": {
                    "module": "keras.initializers",
                    "class_name": "Zeros",
                    "config": {},
                    "registered_name": null
                  },
                  "moving_variance_initializer": {
                    "module": "keras.initializers",
                    "class_name": "Ones",
                    "config": {},
                    "registered_name": null
                  },
                  "beta_regularizer": null,
                  "gamma_regularizer": null,
                  "beta_constraint": null,
                  "gamma_constraint": null,
                  "synchronized": false,
                  "renorm": false,
                  "renorm_clipping": null,
                  "renorm_momentum": 0.99
                },
                "registered_name": null,
                "build_config": {
                  "input_shape": [
                    null,
                    112,
                    112,
                    96
                  ]
                },
                "name": "block_1_expand_BN",
                "inbound_nodes": [
                  {
                    "args": [
                      {
                        "class_name": "__keras_tensor__",
                        "config": {
                          "shape": [
                            null,
                            112,
                            112,
                            96
                          ],
                          "dtype": "float32",
                          "keras_history": [
                            "block_1_expand",
                            0,
                            0
                          ]
                        }
                      }
                    ],
                    "kwargs": {
                      "mask": null
                    }
                  }
                ]
              },
              {
                "module": "keras.layers",
                "class_name": "ReLU",
                "config": {
                  "name": "block_1_expand_relu",
                  "trainable": false,
                  "dtype": {
                    "module": "keras",
                    "class_name": "DTypePolicy",
                    "config": {
                      "name": "float32"
                    },
                    "registered_name": null
                  },
                  "max_value": 6.0,
                  "negative_slope": 0.0,
                  "threshold": 0.0
                },
                "registered_name": null,
                "name": "block_1_expand_relu",
                "inbound_nodes": [
                  {
                    "args": [
                      {
                        "class_name": "__keras_tensor__",
                        "config": {
                          "shape": [
                            null,
                            112,
                            112,
                            96
                          ],
                          "dtype": "float32",
                          "keras_history": [
                            "block_1_expand_BN",
                            0,
                            0
                          ]
                        }
                      }
                    ],
                    "kwargs": {}
                  }
                ]
              },
              {
                "module": "keras.layers",
                "class_name": "ZeroPadding2D",
                "config": {
                  "name": "block_1_pad",
                  "trainable": false,
                  "dtype": {
                    "module": "keras",
                    "class_name": "DTypePolicy",
                    "config": {
                      "name": "float32"
                    },
                    "registered_name": null
                  },
                  "padding": [
                    [
                      0,
                      1
                    ],
                    [
                      0,
                      1
                    ]
                  ],
                  "data_format": "channels_last"
                },
                "registered_name": null,
                "build_config": {
                  "input_shape": [
                    null,
                    112,
                    112,
                    96
                  ]
                },
                "name": "block_1_pad",
                "inbound_nodes": [
                  {
                    "args": [
                      {
                        "class_name": "__keras_tensor__",
                        "config": {
                          "shape": [
                            null,
                            112,
                            112,
                            96
                          ],
                          "dtype": "float32",
                          "keras_history": [
                            "block_1_expand_relu",
                            0,
                            0
                          ]
                        }
                      }
                    ],
                    "kwargs": {}
                  }
                ]
              },
              {
                "module": "keras.layers",
                "class_name": "DepthwiseConv2D",
                "config": {
                  "name": "block_1_depthwise",
                  "trainable": false,
                  "dtype": {
                    "module": "keras",
                    "class_name": "DTypePolicy",
                    "config": {
                      "name": "float32"
                    },
                    "registered_name": null
                  },
                  "depth_multiplier": 1,
                  "kernel_size": [
                    3,
                    3
                  ],
                  "strides": [
                    2,
                    2
                  ],
                  "padding": "valid",
                  "data_format": "channels_last",
                  "dilation_rate": [
                    1,
                    1
                  ],
                  "activation": "linear",
                  "use_bias": false,
                  "depthwise_initializer": {
                    "module": "keras.initializers",
                    "class_name": "GlorotUniform",
                    "config": {
                      "seed": null
                    },
                    "registered_name": null
                  },
                  "bias_initializer": {
                    "module": "keras.initializers",
                    "class_name": "Zeros",
                    "config": {},
                    "registered_name": null
                  },
                  "depthwise_regularizer": null,
                  "bias_regularizer": null,
                  "activity_regularizer": null,
                  "depthwise_constraint": null,
                  "bias_constraint": null
                },
                "registered_name": null,
                "build_config": {
                  "input_shape": [
                    null,
                    113,
                    113,
                    96
                  ]
                },
                "name": "block_1_depthwise",
                "inbound_nodes": [
                  {
                    "args": [
                      {
                        "class_name": "__keras_tensor__",
                        "config": {
                          "shape": [
                            null,
                            113,
                            113,
                            96
                          ],
                          "dtype": "float32",
                          "keras_history": [
                            "block_1_pad",
                            0,
                            0
                          ]
                        }
                      }
                    ],
                    "kwargs": {}
                  }
                ]
              },
              {
                "module": "keras.layers",
                "class_name": "BatchNormalization",
                "config": {
                  "name": "block_1_depthwise_BN",
                  "trainable": false,
                  "dtype": {
                    "module": "keras",
                    "class_name": "DTypePolicy",
                    "config": {
                      "name": "float32"
                    },
                    "registered_name": null
                  },
                  "axis": -1,
                  "momentum": 0.999,
                  "epsilon": 0.001,
                  "center": true,
                  "scale": true,
                  "beta_initializer": {
                    "module": "keras.initializers",
                    "class_name": "Zeros",
                    "config": {},
                    "registered_name": null
                  },
                  "gamma_initializer": {
                    "module": "keras.initializers",
                    "class_name": "Ones",
                    "config": {},
                    "registered_name": null
                  },
                  "moving_mean_initializer": {
                    "module": "keras.initializers",
                    "class_name": "Zeros",
                    "config": {},
                    "registered_name": null
                  },
                  "moving_variance_initializer": {
                    "module": "keras.initializers",
                    "class_name": "Ones",
                    "config": {},
                    "registered_name": null
                  },
                  "beta_regularizer": null,
                  "gamma_regularizer": null,
                  "beta_constraint": null,
                  "gamma_constraint": null,
                  "synchronized": false,
                  "renorm": false,
                  "renorm_clipping": null,
                  "renorm_momentum": 0.99
                },
                "registered_name": null,
                "build_config": {
                  "input_shape": [
                    null,
                    56,
                    56,
                    96
                  ]
                },
                "name": "block_1_depthwise_BN",
                "inbound_nodes": [
                  {
                    "args": [
                      {
                        "class_name": "__keras_tensor__",
                        "config": {
                          "shape": [
                            null,
                            56,
                            56,
                            96
                          ],
                          "dtype": "float32",
                          "keras_history": [
                            "block_1_depthwise",
                            0,
                            0
                          ]
                        }
                      }
                    ],
                    "kwargs": {
                      "mask": null
                    }
                  }
                ]
              },
              {
                "module": "keras.layers",
                "class_name": "ReLU",
                "config": {
                  "name": "block_1_depthwise_relu",
                  "trainable": false,
                  "dtype": {
                    "module": "keras",
                    "class_name": "DTypePolicy",
                    "config": {
                      "name": "float32"
                    },
                    "registered_name": null
                  },
                  "max_value": 6.0,
                  "negative_slope": 0.0,
                  "threshold": 0.0
                },
                "registered_name": null,
                "name": "block_1_depthwise_relu",
                "inbound_nodes": [
                  {
                    "args": [
                      {
                        "class_name": "__keras_tensor__",
                        "config": {
                          "shape": [
                            null,
                            56,
                            56,
                            96
                          ],
                          "dtype": "float32",
                          "keras_history": [
                            "block_1_depthwise_BN",
                            0,
                            0
                          ]
                        }
                      }
                    ],
                    "kwargs": {}
                  }
                ]
              },
              {
                "module": "keras.layers",
                "class_name": "Conv2D",
                "config": {
                  "name": "block_1_project",
                  "trainable": false,
                  "dtype": {
                    "module": "keras",
                    "class_name": "DTypePolicy",
                    "config": {
                      "name": "float32"
                    },
                    "registered_name": null
                  },
                  "filters": 24,
                  "kernel_size": [
                    1,
                    1
                  ],
                  "strides": [
                    1,
                    1
                  ],
                  "padding": "same",
                  "data_format": "channels_last",
                  "dilation_rate": [
                    1,
                    1
                  ],
                  "groups": 1,
                  "activation": "linear",
                  "use_bias": false,
                  "kernel_initializer": {
                    "module": "keras.initializers",
                    "class_name": "GlorotUniform",
                    "config": {
                      "seed": null
                    },
                    "registered_name": null
                  },
                  "bias_initializer": {
                    "module": "keras.initializers",
                    "class_name": "Zeros",
                    "config": {},
                    "registered_name": null
                  },
                  "kernel_regularizer": null,
                  "bias_regularizer": null,
                  "activity_regularizer": null,
                  "kernel_constraint": null,
                  "bias_constraint": null
                },
                "registered_name": null,
                "build_config": {
                  "input_shape": [
                    null,
                    56,
                    56,
                    96
                  ]
                },
                "name": "block_1_project",
                "inbound_nodes": [
                  {
                    "args": [
                      {
                        "class_name": "__keras_tensor__",
                        "config": {
                          "shape": [
                            null,
                            56,
                            56,
                            96
                          ],
                          "dtype": "float32",
                          "keras_history": [
                            "block_1_depthwise_relu",
                            0,
                            0
                          ]
                        }
                      }
                    ],
                    "kwargs": {}
                  }
                ]
              },
              {
                "module": "keras.layers",
                "class_name": "BatchNormalization",
                "config": {
                  "name": "block_1_project_BN",
                  "trainable": false,
                  "dtype": {
                    "module": "keras",
                    "class_name": "DTypePolicy",
                    "config": {
                      "name": "float32"
                    },
                    "registered_name": null
                  },
                  "axis": -1,
                  "momentum": 0.999,
                  "epsilon": 0.001,
                  "center": true,
                  "scale": true,
                  "beta_initializer": {
                    "module": "keras.initializers",
                    "class_name": "Zeros",
                    "config": {},
                    "registered_name": null
                  },
                  "gamma_initializer": {
                    "module": "keras.initializers",
                    "class_name": "Ones",
                    "config": {},
                    "registered_name": null
                  },
                  "moving_mean_initializer": {
                    "module": "keras.initializers",
                    "class_name": "Zeros",
                    "config": {},
                    "registered_name": null
                  },
                  "moving_variance_initializer": {
                    "module": "keras.initializers",
                    "class_name": "Ones",
                    "config": {},
                    "registered_name": null
                  },
                  "beta_regularizer": null,
                  "gamma_regularizer": null,
                  "beta_constraint": null,
                  "gamma_constraint": null,
                  "synchronized": false,
                  "renorm": false,
                  "renorm_clipping": null,
                  "renorm_momentum": 0.99
                },
                "registered_name": null,
                "build_config": {
                  "input_shape": [
                    null,
                    56,
                    56,
                    24
                  ]
                },
                "name": "block_1_project_BN",
                "inbound_nodes": [
                  {
                    "args": [
                      {
                        "class_name": "__keras_tensor__",
                        "config": {
                          "shape": [
                            null,
                            56,
                            56,
                            24
                          ],
                          "dtype": "float32",
                          "keras_history": [
                            "block_1_project",
                            0,
                            0
                          ]
                        }
                      }
                    ],
                    "kwargs": {
                      "mask": null
                    }
                  }
                ]
              },
              {
                "module": "keras.layers",
                "class_name": "Conv2D",
                "config": {
                  "name": "block_2_expand",
                  "trainable": false,
                  "dtype": {
                    "module": "keras",
                    "class_name": "DTypePolicy",
                    "config": {
                      "name": "float32"
                    },
                    "registered_name": null
                  },
                  "filters": 144,
                  "kernel_size": [
                    1,
                    1
                  ],
                  "strides": [
                    1,
                    1
                  ],
                  "padding": "same",
                  "data_format": "channels_last",
                  "dilation_rate": [
                    1,
                    1
                  ],
                  "groups": 1,
                  "activation": "linear",
                  "use_bias": false,
                  "kernel_initializer": {
                    "module": "keras.initializers",
                    "class_name": "GlorotUniform",
                    "config": {
                      "seed": null
                    },
                    "registered_name": null
                  },
                  "bias_initializer": {
                    "module": "keras.initializers",
                    "class_name": "Zeros",
                    "config": {},
                    "registered_name": null
                  },
                  "kernel_regularizer": null,
                  "bias_regularizer": null,
                  "activity_regularizer": null,
                  "kernel_constraint": null,
                  "bias_constraint": null
                },
                "registered_name": null,
                "build_config": {
                  "input_shape": [
                    null,
                    56,
                    56,
                    24
                  ]
                },
                "name": "block_2_expand",
                "inbound_nodes": [
                  {
                    "args": [
                      {
                        "class_name": "__keras_tensor__",
                        "config": {
                          "shape": [
                            null,
                            56,
                            56,
                            24
                          ],
                          "dtype": "float32",
                          "keras_history": [
                            "block_1_project_BN",
                            0,
                            0
                          ]
                        }
                      }
                    ],
                    "kwargs": {}
                  }
                ]
              },
              {
                "module": "keras.layers",
                "class_name": "BatchNormalization",
                "config": {
                  "name": "block_2_expand_BN",
                  "trainable": false,
                  "dtype": {
                    "module": "keras",
                    "class_name": "DTypePolicy",
                    "config": {
                      "name": "float32"
                    },
                    "registered_name": null
                  },
                  "axis": -1,
                  "momentum": 0.999,
                  "epsilon": 0.001,
                  "center": true,
                  "scale": true,
                  "beta_initializer": {
                    "module": "keras.initializers",
                    "class_name": "Zeros",
                    "config": {},
                    "registered_name": null
                  },
                  "gamma_initializer": {
                    "module": "keras.initializers",
                    "class_name": "Ones",
                    "config": {},
                    "registered_name": null
                  },
                  "moving_mean_initializer": {
                    "module": "keras.initializers",
                    "class_name": "Zeros",
                    "config": {},
                    "registered_name": null
                  },
                  "moving_variance_initializer": {
                    "module": "keras.initializers",
                    "class_name": "Ones",
                    "config": {},
                    "registered_name": null
                  },
                  "beta_regularizer": null,
                  "gamma_regularizer": null,
                  "beta_constraint": null,
                  "gamma_constraint": null,
                  "synchronized": false,
                  "renorm": false,
                  "renorm_clipping": null,
                  "renorm_momentum": 0.99
                },
                "registered_name": null,
                "build_config": {
                  "input_shape": [
                    null,
                    56,
                    56,
                    144
                  ]
                },
                "name": "block_2_expand_BN",
                "inbound_nodes": [
                  {
                    "args": [
                      {
                        "class_name": "__keras_tensor__",
                        "config": {
                          "shape": [
                            null,
                            56,
                            56,
                            144
                          ],
                          "dtype": "float32",
                          "keras_history": [
                            "block_2_expand",
                            0,
                            0
                          ]
                        }
                      }
                    ],
                    "kwargs": {
                      "mask": null
                    }
                  }
                ]
              },
              {
                "module": "keras.layers",
                "class_name": "ReLU",
                "config": {
                  "name": "block_2_expand_relu",
                  "trainable": false,
                  "dtype": {
                    "module": "keras",
                    "class_name": "DTypePolicy",
                    "config": {
                      "name": "float32"
                    },
                    "registered_name": null
                  },
                  "max_value": 6.0,
                  "negative_slope": 0.0,
                  "threshold": 0.0
                },
                "registered_name": null,
                "name": "block_2_expand_relu",
                "inbound_nodes": [
                  {
                    "args": [
                      {
                        "class_name": "__keras_tensor__",
                        "config": {
                          "shape": [
                            null,
                            56,
                            56,
                            144
                          ],
                          "dtype": "float32",
                          "keras_history": [
                            "block_2_expand_BN",
                            0,
                            0
                          ]
                        }
                      }
                    ],
                    "kwargs": {}
                  }
                ]
              },
              {
                "module": "keras.layers",
                "class_name": "DepthwiseConv2D",
                "config": {
                  "name": "block_2_depthwise",
                  "trainable": false,
                  "dtype": {
                    "module": "keras",
                    "class_name": "DTypePolicy",
                    "config": {
                      "name": "float32"
                    },
                    "registered_name": null
                  },
                  "depth_multiplier": 1,
                  "kernel_size": [
                    3,
                    3
                  ],
                  "strides": [
                    1,
                    1
                  ],
                  "padding": "same",
                  "data_format": "channels_last",
                  "dilation_rate": [
                    1,
                    1
                  ],
                  "activation": "linear",
                  "use_bias": false,
                  "depthwise_initializer": {
                    "module": "keras.initializers",
                    "class_name": "GlorotUniform",
                    "config": {
                      "seed": null
                    },
                    "registered_name": null
                  },
                  "bias_initializer": {
                    "module": "keras.initializers",
                    "class_name": "Zeros",
                    "config": {},
                    "registered_name": null
                  },
                  "depthwise_regularizer": null,
                  "bias_regularizer": null,
                  "activity_regularizer": null,
                  "depthwise_constraint": null,
                  "bias_constraint": null
                },
                "registered_name": null,
                "build_config": {
                  "input_shape": [
                    null,
                    56,
                    56,
                    144
                  ]
                },
                "name": "block_2_depthwise",
                "inbound_nodes": [
                  {
                    "args": [
                      {
                        "class_name": "__keras_tensor__",
                        "config": {
                          "shape": [
                            null,
                            56,
                            56,
                            144
                          ],
                          "dtype": "float32",
                          "keras_history": [
                            "block_2_expand_relu",
                            0,
                            0
                          ]
                        }
                      }
                    ],
                    "kwargs": {}
                  }
                ]
              },
              {
                "module": "keras.layers",
                "class_name": "BatchNormalization",
                "config": {
                  "name": "block_2_depthwise_BN",
                  "trainable": false,
                  "dtype": {
                    "module": "keras",
                    "class_name": "DTypePolicy",
                    "config": {
                      "name": "float32"
                    },
                    "registered_name": null
                  },
                  "axis": -1,
                  "momentum": 0.999,
                  "epsilon": 0.001,
                  "center": true,
                  "scale": true,
                  "beta_initializer": {
                    "module": "keras.initializers",
                    "class_name": "Zeros",
                    "config": {},
                    "registered_name": null
                  },
                  "gamma_initializer": {
                    "module": "keras.initializers",
                    "class_name": "Ones",
                    "config": {},
                    "registered_name": null
                  },
                  "moving_mean_initializer": {
                    "module": "keras.initializers",
                    "class_name": "Zeros",
                    "config": {},
                    "registered_name": null
                  },
                  "moving_variance_initializer": {
                    "module": "keras.initializers",
                    "class_name": "Ones",
                    "config": {},
                    "registered_name": null
                  },
                  "beta_regularizer": null,
                  "gamma_regularizer": null,
                  "beta_constraint": null,
                  "gamma_constraint": null,
                  "synchronized": false,
                  "renorm": false,
                  "renorm_clipping": null,
                  "renorm_momentum": 0.99
                },
                "registered_name": null,
                "build_config": {
                  "input_shape": [
                    null,
                    56,
                    56,
                    144
                  ]
                },
                "name": "block_2_depthwise_BN",
                "inbound_nodes": [
                  {
                    "args": [
                      {
                        "class_name": "__keras_tensor__",
                        "config": {
                          "shape": [
                            null,
                            56,
                            56,
                            144
                          ],
                          "dtype": "float32",
                          "keras_history": [
                            "block_2_depthwise",
                            0,
                            0
                          ]
                        }
                      }
                    ],
                    "kwargs": {
                      "mask": null
                    }
                  }
                ]
              },
              {
                "module": "keras.layers",
                "class_name": "ReLU",
                "config": {
                  "name": "block_2_depthwise_relu",
                  "trainable": false,
                  "dtype": {
                    "module": "keras",
                    "class_name": "DTypePolicy",
                    "config": {
                      "name": "float32"
                    },
                    "registered_name": null
                  },
                  "max_value": 6.0,
                  "negative_slope": 0.0,
                  "threshold": 0.0
                },
                "registered_name": null,
                "name": "block_2_depthwise_relu",
                "inbound_nodes": [
                  {
                    "args": [
                      {
                        "class_name": "__keras_tensor__",
                        "config": {
                          "shape": [
                            null,
                            56,
                            56,
                            144
                          ],
                          "dtype": "float32",
                          "keras_history": [
                            "block_2_depthwise_BN",
                            0,
                            0
                          ]
                        }
                      }
                    ],
                    "kwargs": {}
                  }
                ]
              },
              {
                "module": "keras.layers",
                "class_name": "Conv2D",
                "config": {
                  "name": "block_2_project",
                  "trainable": false,
                  "dtype": {
                    "module": "keras",
                    "class_name": "DTypePolicy",
                    "config": {
                      "name": "float32"
                    },
                    "registered_name": null
                  },
                  "filters": 24,
                  "kernel_size": [
                    1,
                    1
                  ],
                  "strides": [
                    1,
                    1
                  ],
                  "padding": "same",
                  "data_format": "channels_last",
                  "dilation_rate": [
                    1,
                    1
                  ],
                  "groups": 1,
                  "activation": "linear",
                  "use_bias": false,
                  "kernel_initializer": {
                    "module": "keras.initializers",
                    "class_name": "GlorotUniform",
                    "config": {
                      "seed": null
                    },
                    "registered_name": null
                  },
                  "bias_initializer": {
                    "module": "keras.initializers",
                    "class_name": "Zeros",
                    "config": {},
                    "registered_name": null
                  },
                  "kernel_regularizer": null,
                  "bias_regularizer": null,
                  "activity_regularizer": null,
                  "kernel_constraint": null,
                  "bias_constraint": null
                },
                "registered_name": null,
                "build_config": {
                  "input_shape": [
                    null,
                    56,
                    56,
                    144
                  ]
                },
                "name": "block_2_project",
                "inbound_nodes": [
                  {
                    "args": [
                      {
                        "class_name": "__keras_tensor__",
                        "config": {
                          "shape": [
                            null,
                            56,
                            56,
                            144
                          ],
                          "dtype": "float32",
                          "keras_history": [
                            "block_2_depthwise_relu",
                            0,
                            0
                          ]
                        }
                      }
                    ],
                    "kwargs": {}
                  }
                ]
              },
              {
                "module": "keras.layers",
                "class_name": "BatchNormalization",
                "config": {
                  "name": "block_2_project_BN",
                  "trainable": false,
                  "dtype": {
                    "module": "keras",
                    "class_name": "DTypePolicy",
                    "config": {
                      "name": "float32"
                    },
                    "registered_name": null
                  },
                  "axis": -1,
                  "momentum": 0.999,
                  "epsilon": 0.001,
                  "center": true,
                  "scale": true,
                  "beta_initializer": {
                    "module": "keras.initializers",
                    "class_name": "Zeros",
                    "config": {},
                    "registered_name": null
                  },
                  "gamma_initializer": {
                    "module": "keras.initializers",
                    "class_name": "Ones",
                    "config": {},
                    "registered_name": null
                  },
                  "moving_mean_initializer": {
                    "module": "keras.initializers",
                    "class_name": "Zeros",
                    "config": {},
                    "registered_name": null
                  },
                  "moving_variance_initializer": {
                    "module": "keras.initializers",
                    "class_name": "Ones",
                    "config": {},
                    "registered_name": null
                  },
                  "beta_regularizer": null,
                  "gamma_regularizer": null,
                  "beta_constraint": null,
                  "gamma_constraint": null,
                  "synchronized": false,
                  "renorm": false,
                  "renorm_clipping": null,
                  "renorm_momentum": 0.99
                },
                "registered_name": null,
                "build_config": {
                  "input_shape": [
                    null,
                    56,
                    56,
                    24
                  ]
                },
                "name": "block_2_project_BN",
                "inbound_nodes": [
                  {
                    "args": [
                      {
                        "class_name": "__keras_tensor__",
                        "config": {
                          "shape": [
                            null,
                            56,
                            56,
                            24
                          ],
                          "dtype": "float32",
                          "keras_history": [
                            "block_2_project",
                            0,
                            0
                          ]
                        }
                      }
                    ],
                    "kwargs": {
                      "mask": null
                    }
                  }
                ]
              },
              {
                "module": "keras.layers",
                "class_name": "Add",
                "config": {
                  "name": "block_2_add",
                  "trainable": false,
                  "dtype": {
                    "module": "keras",
                    "class_name": "DTypePolicy",
                    "config": {
                      "name": "float32"
                    },
                    "registered_name": null
                  }
                },
                "registered_name": null,
                "build_config": {
                  "input_shape": [
                    [
                      null,
                      56,
                      56,
                      24
                    ],
                    [
                      null,
                      56,
                      56,
                      24
                    ]
                  ]
                },
                "name": "block_2_add",
                "inbound_nodes": [
                  {
                    "args": [
                      [
                        {
                          "class_name": "__keras_tensor__",
                          "config": {
                            "shape": [
                              null,
                              56,
                              56,
                              24
                            ],
                            "dtype": "float32",
                            "keras_history": [
                              "block_1_project_BN",
                              0,
                              0
                            ]
                          }
                        },
                        {
                          "class_name": "__keras_tensor__",
                          "config": {
                            "shape": [
                              null,
                              56,
                              56,
                              24
                            ],
                            "dtype": "float32",
                            "keras_history": [
                              "block_2_project_BN",
                              0,
                              0
                            ]
                          }
                        }
                      ]
                    ],
                    "kwargs": {}
                  }
                ]
              },
              {
                "module": "keras.layers",
                "class_name": "Conv2D",
                "config": {
                  "name": "block_3_expand",
                  "trainable": false,
                  "dtype": {
                    "module": "keras",
                    "class_name": "DTypePolicy",
                    "config": {
                      "name": "float32"
                    },
                    "registered_name": null
                  },
                  "filters": 144,
                  "kernel_size": [
                    1,
                    1
                  ],
                  "strides": [
                    1,
                    1
                  ],
                  "padding": "same",
                  "data_format": "channels_last",
                  "dilation_rate": [
                    1,
                    1
                  ],
                  "groups": 1,
                  "activation": "linear",
                  "use_bias": false,
                  "kernel_initializer": {
                    "module": "keras.initializers",
                    "class_name": "GlorotUniform",
                    "config": {
                      "seed": null
                    },
                    "registered_name": null
                  },
                  "bias_initializer": {
                    "module": "keras.initializers",
                    "class_name": "Zeros",
                    "config": {},
                    "registered_name": null
                  },
                  "kernel_regularizer": null,
                  "bias_regularizer": null,
                  "activity_regularizer": null,
                  "kernel_constraint": null,
                  "bias_constraint": null
                },
                "registered_name": null,
                "build_config": {
                  "input_shape": [
                    null,
                    56,
                    56,
                    24
                  ]
                },
                "name": "block_3_expand",
                "inbound_nodes": [
                  {
                    "args": [
                      {
                        "class_name": "__keras_tensor__",
                        "config": {
                          "shape": [
                            null,
                            56,
                            56,
                            24
                          ],
                          "dtype": "float32",
                          "keras_history": [
                            "block_2_add",
                            0,
                            0
                          ]
                        }
                      }
                    ],
                    "kwargs": {}
                  }
                ]
              },
              {
                "module": "keras.layers",
                "class_name": "BatchNormalization",
                "config": {
                  "name": "block_3_expand_BN",
                  "trainable": false,
                  "dtype": {
                    "module": "keras",
                    "class_name": "DTypePolicy",
                    "config": {
                      "name": "float32"
                    },
                    "registered_name": null
                  },
                  "axis": -1,
                  "momentum": 0.999,
                  "epsilon": 0.001,
                  "center": true,
                  "scale": true,
                  "beta_initializer": {
                    "module": "keras.initializers",
                    "class_name": "Zeros",
                    "config": {},
                    "registered_name": null
                  },
                  "gamma_initializer": {
                    "module": "keras.initializers",
                    "class_name": "Ones",
                    "config": {},
                    "registered_name": null
                  },
                  "moving_mean_initializer": {
                    "module": "keras.initializers",
                    "class_name": "Zeros",
                    "config": {},
                    "registered_name": null
                  },
                  "moving_variance_initializer": {
                    "module": "keras.initializers",
                    "class_name": "Ones",
                    "config": {},
                    "registered_name": null
                  },
                  "beta_regularizer": null,
                  "gamma_regularizer": null,
                  "beta_constraint": null,
                  "gamma_constraint": null,
                  "synchronized": false,
                  "renorm": false,
                  "renorm_clipping": null,
                  "renorm_momentum": 0.99
                },
                "registered_name": null,
                "build_config": {
                  "input_shape": [
                    null,
                    56,
                    56,
                    144
                  ]
                },
                "name": "block_3_expand_BN",
                "inbound_nodes": [
                  {
                    "args": [
                      {
                        "class_name": "__keras_tensor__",
                        "config": {
                          "shape": [
                            null,
                            56,
                            56,
                            144
                          ],
                          "dtype": "float32",
                          "keras_history": [
                            "block_3_expand",
                            0,
                            0
                          ]
                        }
                      }
                    ],
                    "kwargs": {
                      "mask": null
                    }
                  }
                ]
              },
              {
                "module": "keras.layers",
                "class_name": "ReLU",
                "config": {
                  "name": "block_3_expand_relu",
                  "trainable": false,
                  "dtype": {
                    "module": "keras",
                    "class_name": "DTypePolicy",
                    "config": {
                      "name": "float32"
                    },
                    "registered_name": null
                  },
                  "max_value": 6.0,
                  "negative_slope": 0.0,
                  "threshold": 0.0
                },
                "registered_name": null,
                "name": "block_3_expand_relu",
                "inbound_nodes": [
                  {
                    "args": [
                      {
                        "class_name": "__keras_tensor__",
                        "config": {
                          "shape": [
                            null,
                            56,
                            56,
                            144
                          ],
                          "dtype": "float32",
                          "keras_history": [
                            "block_3_expand_BN",
                            0,
                            0
                          ]
                        }
                      }
                    ],
                    "kwargs": {}
                  }
                ]
              },
              {
                "module": "keras.layers",
                "class_name": "ZeroPadding2D",
                "config": {
                  "name": "block_3_pad",
                  "trainable": false,
                  "dtype": {
                    "module": "keras",
                    "class_name": "DTypePolicy",
                    "config": {
                      "name": "float32"
                    },
                    "registered_name": null
                  },
                  "padding": [
                    [
                      0,
                      1
                    ],
                    [
                      0,
                      1
                    ]
                  ],
                  "data_format": "channels_last"
                },
                "registered_name": null,
                "build_config": {
                  "input_shape": [
                    null,
                    56,
                    56,
                    144
                  ]
                },
                "name": "block_3_pad",
                "inbound_nodes": [
                  {
                    "args": [
                      {
                        "class_name": "__keras_tensor__",
                        "config": {
                          "shape": [
                            null,
                            56,
                            56,
                            144
                          ],
                          "dtype": "float32",
                          "keras_history": [
                            "block_3_expand_relu",
                            0,
                            0
                          ]
                        }
                      }
                    ],
                    "kwargs": {}
                  }
                ]
              },
              {
                "module": "keras.layers",
                "class_name": "DepthwiseConv2D",
                "config": {
                  "name": "block_3_depthwise",
                  "trainable": false,
                  "dtype": {
                    "module": "keras",
                    "class_name": "DTypePolicy",
                    "config": {
                      "name": "float32"
                    },
                    "registered_name": null
                  },
                  "depth_multiplier": 1,
                  "kernel_size": [
                    3,
                    3
                  ],
                  "strides": [
                    2,
                    2
                  ],
                  "padding": "valid",
                  "data_format": "channels_last",
                  "dilation_rate": [
                    1,
                    1
                  ],
                  "activation": "linear",
                  "use_bias": false,
                  "depthwise_initializer": {
                    "module": "keras.initializers",
                    "class_name": "GlorotUniform",
                    "config": {
                      "seed": null
                    },
                    "registered_name": null
                  },
                  "bias_initializer": {
                    "module": "keras.initializers",
                    "class_name": "Zeros",
                    "config": {},
                    "registered_name": null
                  },
                  "depthwise_regularizer": null,
                  "bias_regularizer": null,
                  "activity_regularizer": null,
                  "depthwise_constraint": null,
                  "bias_constraint": null
                },
                "registered_name": null,
                "build_config": {
                  "input_shape": [
                    null,
                    57,
                    57,
                    144
                  ]
                },
                "name": "block_3_depthwise",
                "inbound_nodes": [
                  {
                    "args": [
                      {
                        "class_name": "__keras_tensor__",
                        "config": {
                          "shape": [
                            null,
                            57,
                            57,
                            144
                          ],
                          "dtype": "float32",
                          "keras_history": [
                            "block_3_pad",
                            0,
                            0
                          ]
                        }
                      }
                    ],
                    "kwargs": {}
                  }
                ]
              },
              {
                "module": "keras.layers",
                "class_name": "BatchNormalization",
                "config": {
                  "name": "block_3_depthwise_BN",
                  "trainable": false,
                  "dtype": {
                    "module": "keras",
                    "class_name": "DTypePolicy",
                    "config": {
                      "name": "float32"
                    },
                    "registered_name": null
                  },
                  "axis": -1,
                  "momentum": 0.999,
                  "epsilon": 0.001,
                  "center": true,
                  "scale": true,
                  "beta_initializer": {
                    "module": "keras.initializers",
                    "class_name": "Zeros",
                    "config": {},
                    "registered_name": null
                  },
                  "gamma_initializer": {
                    "module": "keras.initializers",
                    "class_name": "Ones",
                    "config": {},
                    "registered_name": null
                  },
                  "moving_mean_initializer": {
                    "module": "keras.initializers",
                    "class_name": "Zeros",
                    "config": {},
                    "registered_name": null
                  },
                  "moving_variance_initializer": {
                    "module": "keras.initializers",
                    "class_name": "Ones",
                    "config": {},
                    "registered_name": null
                  },
                  "beta_regularizer": null,
                  "gamma_regularizer": null,
                  "beta_constraint": null,
                  "gamma_constraint": null,
                  "synchronized": false,
                  "renorm": false,
                  "renorm_clipping": null,
                  "renorm_momentum": 0.99
                },
                "registered_name": null,
                "build_config": {
                  "input_shape": [
                    null,
                    28,
                    28,
                    144
                  ]
                },
                "name": "block_3_depthwise_BN",
                "inbound_nodes": [
                  {
                    "args": [
                      {
                        "class_name": "__keras_tensor__",
                        "config": {
                          "shape": [
                            null,
                            28,
                            28,
                            144
                          ],
                          "dtype": "float32",
                          "keras_history": [
                            "block_3_depthwise",
                            0,
                            0
                          ]
                        }
                      }
                    ],
                    "kwargs": {
                      "mask": null
                    }
                  }
                ]
              },
              {
                "module": "keras.layers",
                "class_name": "ReLU",
                "config": {
                  "name": "block_3_depthwise_relu",
                  "trainable": false,
                  "dtype": {
                    "module": "keras",
                    "class_name": "DTypePolicy",
                    "config": {
                      "name": "float32"
                    },
                    "registered_name": null
                  },
                  "max_value": 6.0,
                  "negative_slope": 0.0,
                  "threshold": 0.0
                },
                "registered_name": null,
                "name": "block_3_depthwise_relu",
                "inbound_nodes": [
                  {
                    "args": [
                      {
                        "class_name": "__keras_tensor__",
                        "config": {
                          "shape": [
                            null,
                            28,
                            28,
                            144
                          ],
                          "dtype": "float32",
                          "keras_history": [
                            "block_3_depthwise_BN",
                            0,
                            0
                          ]
                        }
                      }
                    ],
                    "kwargs": {}
                  }
                ]
              },
              {
                "module": "keras.layers",
                "class_name": "Conv2D",
                "config": {
                  "name": "block_3_project",
                  "trainable": false,
                  "dtype": {
                    "module": "keras",
                    "class_name": "DTypePolicy",
                    "config": {
                      "name": "float32"
                    },
                    "registered_name": null
                  },
                  "filters": 32,
                  "kernel_size": [
                    1,
                    1
                  ],
                  "strides": [
                    1,
                    1
                  ],
                  "padding": "same",
                  "data_format": "channels_last",
                  "dilation_rate": [
                    1,
                    1
                  ],
                  "groups": 1,
                  "activation": "linear",
                  "use_bias": false,
                  "kernel_initializer": {
                    "module": "keras.initializers",
                    "class_name": "GlorotUniform",
                    "config": {
                      "seed": null
                    },
                    "registered_name": null
                  },
                  "bias_initializer": {
                    "module": "keras.initializers",
                    "class_name": "Zeros",
                    "config": {},
                    "registered_name": null
                  },
                  "kernel_regularizer": null,
                  "bias_regularizer": null,
                  "activity_regularizer": null,
                  "kernel_constraint": null,
                  "bias_constraint": null
                },
                "registered_name": null,
                "build_config": {
                  "input_shape": [
                    null,
                    28,
                    28,
                    144
                  ]
                },
                "name": "block_3_project",
                "inbound_nodes": [
                  {
                    "args": [
                      {
                        "class_name": "__keras_tensor__",
                        "config": {
                          "shape": [
                            null,
                            28,
                            28,
                            144
                          ],
                          "dtype": "float32",
                          "keras_history": [
                            "block_3_depthwise_relu",
                            0,
                            0
                          ]
                        }
                      }
                    ],
                    "kwargs": {}
                  }
                ]
              },
              {
                "module": "keras.layers",
                "class_name": "BatchNormalization",
                "config": {
                  "name": "block_3_project_BN",
                  "trainable": false,
                  "dtype": {
                    "module": "keras",
                    "class_name": "DTypePolicy",
                    "config": {
                      "name": "float32"
                    },
                    "registered_name": null
                  },
                  "axis": -1,
                  "momentum": 0.999,
                  "epsilon": 0.001,
                  "center": true,
                  "scale": true,
                  "beta_initializer": {
                    "module": "keras.initializers",
                    "class_name": "Zeros",
                    "config": {},
                    "registered_name": null
                  },
                  "gamma_initializer": {
                    "module": "keras.initializers",
                    "class_name": "Ones",
                    "config": {},
                    "registered_name": null
                  },
                  "moving_mean_initializer": {
                    "module": "keras.initializers",
                    "class_name": "Zeros",
                    "config": {},
                    "registered_name": null
                  },
                  "moving_variance_initializer": {
                    "module": "keras.initializers",
                    "class_name": "Ones",
                    "config": {},
                    "registered_name": null
                  },
                  "beta_regularizer": null,
                  "gamma_regularizer": null,
                  "beta_constraint": null,
                  "gamma_constraint": null,
                  "synchronized": false,
                  "renorm": false,
                  "renorm_clipping": null,
                  "renorm_momentum": 0.99
                },
                "registered_name": null,
                "build_config": {
                  "input_shape": [
                    null,
                    28,
                    28,
                    32
                  ]
                },
                "name": "block_3_project_BN",
                "inbound_nodes": [
                  {
                    "args": [
                      {
                        "class_name": "__keras_tensor__",
                        "config": {
                          "shape": [
                            null,
                            28,
                            28,
                            32
                          ],
                          "dtype": "float32",
                          "keras_history": [
                            "block_3_project",
                            0,
                            0
                          ]
                        }
                      }
                    ],
                    "kwargs": {
                      "mask": null
                    }
                  }
                ]
              },
              {
                "module": "keras.layers",
                "class_name": "Conv2D",
                "config": {
                  "name": "block_4_expand",
                  "trainable": false,
                  "dtype": {
                    "module": "keras",
                    "class_name": "DTypePolicy",
                    "config": {
                      "name": "float32"
                    },
                    "registered_name": null
                  },
                  "filters": 192,
                  "kernel_size": [
                    1,
                    1
                  ],
                  "strides": [
                    1,
                    1
                  ],
                  "padding": "same",
                  "data_format": "channels_last",
                  "dilation_rate": [
                    1,
                    1
                  ],
                  "groups": 1,
                  "activation": "linear",
                  "use_bias": false,
                  "kernel_initializer": {
                    "module": "keras.initializers",
                    "class_name": "GlorotUniform",
                    "config": {
                      "seed": null
                    },
                    "registered_name": null
                  },
                  "bias_initializer": {
                    "module": "keras.initializers",
                    "class_name": "Zeros",
                    "config": {},
                    "registered_name": null
                  },
                  "kernel_regularizer": null,
                  "bias_regularizer": null,
                  "activity_regularizer": null,
                  "kernel_constraint": null,
                  "bias_constraint": null
                },
                "registered_name": null,
                "build_config": {
                  "input_shape": [
                    null,
                    28,
                    28,
                    32
                  ]
                },
                "name": "block_4_expand",
                "inbound_nodes": [
                  {
                    "args": [
                      {
                        "class_name": "__keras_tensor__",
                        "config": {
                          "shape": [
                            null,
                            28,
                            28,
                            32
                          ],
                          "dtype": "float32",
                          "keras_history": [
                            "block_3_project_BN",
                            0,
                            0
                          ]
                        }
                      }
                    ],
                    "kwargs": {}
                  }
                ]
              },
              {
                "module": "keras.layers",
                "class_name": "BatchNormalization",
                "config": {
                  "name": "block_4_expand_BN",
                  "trainable": false,
                  "dtype": {
                    "module": "keras",
                    "class_name": "DTypePolicy",
                    "config": {
                      "name": "float32"
                    },
                    "registered_name": null
                  },
                  "axis": -1,
                  "momentum": 0.999,
                  "epsilon": 0.001,
                  "center": true,
                  "scale": true,
                  "beta_initializer": {
                    "module": "keras.initializers",
                    "class_name": "Zeros",
                    "config": {},
                    "registered_name": null
                  },
                  "gamma_initializer": {
                    "module": "keras.initializers",
                    "class_name": "Ones",
                    "config": {},
                    "registered_name": null
                  },
                  "moving_mean_initializer": {
                    "module": "keras.initializers",
                    "class_name": "Zeros",
                    "config": {},
                    "registered_name": null
                  },
                  "moving_variance_initializer": {
                    "module": "keras.initializers",
                    "class_name": "Ones",
                    "config": {},
                    "registered_name": null
                  },
                  "beta_regularizer": null,
                  "gamma_regularizer": null,
                  "beta_constraint": null,
                  "gamma_constraint": null,
                  "synchronized": false,
                  "renorm": false,
                  "renorm_clipping": null,
                  "renorm_momentum": 0.99
                },
                "registered_name": null,
                "build_config": {
                  "input_shape": [
                    null,
                    28,
                    28,
                    192
                  ]
                },
                "name": "block_4_expand_BN",
                "inbound_nodes": [
                  {
                    "args": [
                      {
                        "class_name": "__keras_tensor__",
                        "config": {
                          "shape": [
                            null,
                            28,
                            28,
                            192
                          ],
                          "dtype": "float32",
                          "keras_history": [
                            "block_4_expand",
                            0,
                            0
                          ]
                        }
                      }
                    ],
                    "kwargs": {
                      "mask": null
                    }
                  }
                ]
              },
              {
                "module": "keras.layers",
                "class_name": "ReLU",
                "config": {
                  "name": "block_4_expand_relu",
                  "trainable": false,
                  "dtype": {
                    "module": "keras",
                    "class_name": "DTypePolicy",
                    "config": {
                      "name": "float32"
                    },
                    "registered_name": null
                  },
                  "max_value": 6.0,
                  "negative_slope": 0.0,
                  "threshold": 0.0
                },
                "registered_name": null,
                "name": "block_4_expand_relu",
                "inbound_nodes": [
                  {
                    "args": [
                      {
                        "class_name": "__keras_tensor__",
                        "config": {
                          "shape": [
                            null,
                            28,
                            28,
                            192
                          ],
                          "dtype": "float32",
                          "keras_history": [
                            "block_4_expand_BN",
                            0,
                            0
                          ]
                        }
                      }
                    ],
                    "kwargs": {}
                  }
                ]
              },
              {
                "module": "keras.layers",
                "class_name": "DepthwiseConv2D",
                "config": {
                  "name": "block_4_depthwise",
                  "trainable": false,
                  "dtype": {
                    "module": "keras",
                    "class_name": "DTypePolicy",
                    "config": {
                      "name": "float32"
                    },
                    "registered_name": null
                  },
                  "depth_multiplier": 1,
                  "kernel_size": [
                    3,
                    3
                  ],
                  "strides": [
                    1,
                    1
                  ],
                  "padding": "same",
                  "data_format": "channels_last",
                  "dilation_rate": [
                    1,
                    1
                  ],
                  "activation": "linear",
                  "use_bias": false,
                  "depthwise_initializer": {
                    "module": "keras.initializers",
                    "class_name": "GlorotUniform",
                    "config": {
                      "seed": null
                    },
                    "registered_name": null
                  },
                  "bias_initializer": {
                    "module": "keras.initializers",
                    "class_name": "Zeros",
                    "config": {},
                    "registered_name": null
                  },
                  "depthwise_regularizer": null,
                  "bias_regularizer": null,
                  "activity_regularizer": null,
                  "depthwise_constraint": null,
                  "bias_constraint": null
                },
                "registered_name": null,
                "build_config": {
                  "input_shape": [
                    null,
                    28,
                    28,
                    192
                  ]
                },
                "name": "block_4_depthwise",
                "inbound_nodes": [
                  {
                    "args": [
                      {
                        "class_name": "__keras_tensor__",
                        "config": {
                          "shape": [
                            null,
                            28,
                            28,
                            192
                          ],
                          "dtype": "float32",
                          "keras_history": [
                            "block_4_expand_relu",
                            0,
                            0
                          ]
                        }
                      }
                    ],
                    "kwargs": {}
                  }
                ]
              },
              {
                "module": "keras.layers",
                "class_name": "BatchNormalization",
                "config": {
                  "name": "block_4_depthwise_BN",
                  "trainable": false,
                  "dtype": {
                    "module": "keras",
                    "class_name": "DTypePolicy",
                    "config": {
                      "name": "float32"
                    },
                    "registered_name": null
                  },
                  "axis": -1,
                  "momentum": 0.999,
                  "epsilon": 0.001,
                  "center": true,
                  "scale": true,
                  "beta_initializer": {
                    "module": "keras.initializers",
                    "class_name": "Zeros",
                    "config": {},
                    "registered_name": null
                  },
                  "gamma_initializer": {
                    "module": "keras.initializers",
                    "class_name": "Ones",
                    "config": {},
                    "registered_name": null
                  },
                  "moving_mean_initializer": {
                    "module": "keras.initializers",
                    "class_name": "Zeros",
                    "config": {},
                    "registered_name": null
                  },
                  "moving_variance_initializer": {
                    "module": "keras.initializers",
                    "class_name": "Ones",
                    "config": {},
                    "registered_name": null
                  },
                  "beta_regularizer": null,
                  "gamma_regularizer": null,
                  "beta_constraint": null,
                  "gamma_constraint": null,
                  "synchronized": false,
                  "renorm": false,
                  "renorm_clipping": null,
                  "renorm_momentum": 0.99
                },
                "registered_name": null,
                "build_config": {
                  "input_shape": [
                    null,
                    28,
                    28,
                    192
                  ]
                },
                "name": "block_4_depthwise_BN",
                "inbound_nodes": [
                  {
                    "args": [
                      {
                        "class_name": "__keras_tensor__",
                        "config": {
                          "shape": [
                            null,
                            28,
                            28,
                            192
                          ],
                          "dtype": "float32",
                          "keras_history": [
                            "block_4_depthwise",
                            0,
                            0
                          ]
                        }
                      }
                    ],
                    "kwargs": {
                      "mask": null
                    }
                  }
                ]
              },
              {
                "module": "keras.layers",
                "class_name": "ReLU",
                "config": {
                  "name": "block_4_depthwise_relu",
                  "trainable": false,
                  "dtype": {
                    "module": "keras",
                    "class_name": "DTypePolicy",
                    "config": {
                      "name": "float32"
                    },
                    "registered_name": null
                  },
                  "max_value": 6.0,
                  "negative_slope": 0.0,
                  "threshold": 0.0
                },
                "registered_name": null,
                "name": "block_4_depthwise_relu",
                "inbound_nodes": [
                  {
                    "args": [
                      {
                        "class_name": "__keras_tensor__",
                        "config": {
                          "shape": [
                            null,
                            28,
                            28,
                            192
                          ],
                          "dtype": "float32",
                          "keras_history": [
                            "block_4_depthwise_BN",
                            0,
                            0
                          ]
                        }
                      }
                    ],
                    "kwargs": {}
                  }
                ]
              },
              {
                "module": "keras.layers",
                "class_name": "Conv2D",
                "config": {
                  "name": "block_4_project",
                  "trainable": false,
                  "dtype": {
                    "module": "keras",
                    "class_name": "DTypePolicy",
                    "config": {
                      "name": "float32"
                    },
                    "registered_name": null
                  },
                  "filters": 32,
                  "kernel_size": [
                    1,
                    1
                  ],
                  "strides": [
                    1,
                    1
                  ],
                  "padding": "same",
                  "data_format": "channels_last",
                  "dilation_rate": [
                    1,
                    1
                  ],
                  "groups": 1,
                  "activation": "linear",
                  "use_bias": false,
                  "kernel_initializer": {
                    "module": "keras.initializers",
                    "class_name": "GlorotUniform",
                    "config": {
                      "seed": null
                    },
                    "registered_name": null
                  },
                  "bias_initializer": {
                    "module": "keras.initializers",
                    "class_name": "Zeros",
                    "config": {},
                    "registered_name": null
                  },
                  "kernel_regularizer": null,
                  "bias_regularizer": null,
                  "activity_regularizer": null,
                  "kernel_constraint": null,
                  "bias_constraint": null
                },
                "registered_name": null,
                "build_config": {
                  "input_shape": [
                    null,
                    28,
                    28,
                    192
                  ]
                },
                "name": "block_4_project",
                "inbound_nodes": [
                  {
                    "args": [
                      {
                        "class_name": "__keras_tensor__",
                        "config": {
                          "shape": [
                            null,
                            28,
                            28,
                            192
                          ],
                          "dtype": "float32",
                          "keras_history": [
                            "block_4_depthwise_relu",
                            0,
                            0
                          ]
                        }
                      }
                    ],
                    "kwargs": {}
                  }
                ]
              },
              {
                "module": "keras.layers",
                "class_name": "BatchNormalization",
                "config": {
                  "name": "block_4_project_BN",
                  "trainable": false,
                  "dtype": {
                    "module": "keras",
                    "class_name": "DTypePolicy",
                    "config": {
                      "name": "float32"
                    },
                    "registered_name": null
                  },
                  "axis": -1,
                  "momentum": 0.999,
                  "epsilon": 0.001,
                  "center": true,
                  "scale": true,
                  "beta_initializer": {
                    "module": "keras.initializers",
                    "class_name": "Zeros",
                    "config": {},
                    "registered_name": null
                  },
                  "gamma_initializer": {
                    "module": "keras.initializers",
                    "class_name": "Ones",
                    "config": {},
                    "registered_name": null
                  },
                  "moving_mean_initializer": {
                    "module": "keras.initializers",
                    "class_name": "Zeros",
                    "config": {},
                    "registered_name": null
                  },
                  "moving_variance_initializer": {
                    "module": "keras.initializers",
                    "class_name": "Ones",
                    "config": {},
                    "registered_name": null
                  },
                  "beta_regularizer": null,
                  "gamma_regularizer": null,
                  "beta_constraint": null,
                  "gamma_constraint": null,
                  "synchronized": false,
                  "renorm": false,
                  "renorm_clipping": null,
                  "renorm_momentum": 0.99
                },
                "registered_name": null,
                "build_config": {
                  "input_shape": [
                    null,
                    28,
                    28,
                    32
                  ]
                },
                "name": "block_4_project_BN",
                "inbound_nodes": [
                  {
                    "args": [
                      {
                        "class_name": "__keras_tensor__",
                        "config": {
                          "shape": [
                            null,
                            28,
                            28,
                            32
                          ],
                          "dtype": "float32",
                          "keras_history": [
                            "block_4_project",
                            0,
                            0
                          ]
                        }
                      }
                    ],
                    "kwargs": {
                      "mask": null
                    }
                  }
                ]
              },
              {
                "module": "keras.layers",
                "class_name": "Add",
                "config": {
                  "name": "block_4_add",
                  "trainable": false,
                  "dtype": {
                    "module": "keras",
                    "class_name": "DTypePolicy",
                    "config": {
                      "name": "float32"
                    },
                    "registered_name": null
                  }
                },
                "registered_name": null,
                "build_config": {
                  "input_shape": [
                    [
                      null,
                      28,
                      28,
                      32
                    ],
                    [
                      null,
                      28,
                      28,
                      32
                    ]
                  ]
                },
                "name": "block_4_add",
                "inbound_nodes": [
                  {
                    "args": [
                      [
                        {
                          "class_name": "__keras_tensor__",
                          "config": {
                            "shape": [
                              null,
                              28,
                              28,
                              32
                            ],
                            "dtype": "float32",
                            "keras_history": [
                              "block_3_project_BN",
                              0,
                              0
                            ]
                          }
                        },
                        {
                          "class_name": "__keras_tensor__",
                          "config": {
                            "shape": [
                              null,
                              28,
                              28,
                              32
                            ],
                            "dtype": "float32",
                            "keras_history": [
                              "block_4_project_BN",
                              0,
                              0
                            ]
                          }
                        }
                      ]
                    ],
                    "kwargs": {}
                  }
                ]
              },
              {
                "module": "keras.layers",
                "class_name": "Conv2D",
                "config": {
                  "name": "block_5_expand",
                  "trainable": false,
                  "dtype": {
                    "module": "keras",
                    "class_name": "DTypePolicy",
                    "config": {
                      "name": "float32"
                    },
                    "registered_name": null
                  },
                  "filters": 192,
                  "kernel_size": [
                    1,
                    1
                  ],
                  "strides": [
                    1,
                    1
                  ],
                  "padding": "same",
                  "data_format": "channels_last",
                  "dilation_rate": [
                    1,
                    1
                  ],
                  "groups": 1,
                  "activation": "linear",
                  "use_bias": false,
                  "kernel_initializer": {
                    "module": "keras.initializers",
                    "class_name": "GlorotUniform",
                    "config": {
                      "seed": null
                    },
                    "registered_name": null
                  },
                  "bias_initializer": {
                    "module": "keras.initializers",
                    "class_name": "Zeros",
                    "config": {},
                    "registered_name": null
                  },
                  "kernel_regularizer": null,
                  "bias_regularizer": null,
                  "activity_regularizer": null,
                  "kernel_constraint": null,
                  "bias_constraint": null
                },
                "registered_name": null,
                "build_config": {
                  "input_shape": [
                    null,
                    28,
                    28,
                    32
                  ]
                },
                "name": "block_5_expand",
                "inbound_nodes": [
                  {
                    "args": [
                      {
                        "class_name": "__keras_tensor__",
                        "config": {
                          "shape": [
                            null,
                            28,
                            28,
                            32
                          ],
                          "dtype": "float32",
                          "keras_history": [
                            "block_4_add",
                            0,
                            0
                          ]
                        }
                      }
                    ],
                    "kwargs": {}
                  }
                ]
              },
              {
                "module": "keras.layers",
                "class_name": "BatchNormalization",
                "config": {
                  "name": "block_5_expand_BN",
                  "trainable": false,
                  "dtype": {
                    "module": "keras",
                    "class_name": "DTypePolicy",
                    "config": {
                      "name": "float32"
                    },
                    "registered_name": null
                  },
                  "axis": -1,
                  "momentum": 0.999,
                  "epsilon": 0.001,
                  "center": true,
                  "scale": true,
                  "beta_initializer": {
                    "module": "keras.initializers",
                    "class_name": "Zeros",
                    "config": {},
                    "registered_name": null
                  },
                  "gamma_initializer": {
                    "module": "keras.initializers",
                    "class_name": "Ones",
                    "config": {},
                    "registered_name": null
                  },
                  "moving_mean_initializer": {
                    "module": "keras.initializers",
                    "class_name": "Zeros",
                    "config": {},
                    "registered_name": null
                  },
                  "moving_variance_initializer": {
                    "module": "keras.initializers",
                    "class_name": "Ones",
                    "config": {},
                    "registered_name": null
                  },
                  "beta_regularizer": null,
                  "gamma_regularizer": null,
                  "beta_constraint": null,
                  "gamma_constraint": null,
                  "synchronized": false,
                  "renorm": false,
                  "renorm_clipping": null,
                  "renorm_momentum": 0.99
                },
                "registered_name": null,
                "build_config": {
                  "input_shape": [
                    null,
                    28,
                    28,
                    192
                  ]
                },
                "name": "block_5_expand_BN",
                "inbound_nodes": [
                  {
                    "args": [
                      {
                        "class_name": "__keras_tensor__",
                        "config": {
                          "shape": [
                            null,
                            28,
                            28,
                            192
                          ],
                          "dtype": "float32",
                          "keras_history": [
                            "block_5_expand",
                            0,
                            0
                          ]
                        }
                      }
                    ],
                    "kwargs": {
                      "mask": null
                    }
                  }
                ]
              },
              {
                "module": "keras.layers",
                "class_name": "ReLU",
                "config": {
                  "name": "block_5_expand_relu",
                  "trainable": false,
                  "dtype": {
                    "module": "keras",
                    "class_name": "DTypePolicy",
                    "config": {
                      "name": "float32"
                    },
                    "registered_name": null
                  },
                  "max_value": 6.0,
                  "negative_slope": 0.0,
                  "threshold": 0.0
                },
                "registered_name": null,
                "name": "block_5_expand_relu",
                "inbound_nodes": [
                  {
                    "args": [
                      {
                        "class_name": "__keras_tensor__",
                        "config": {
                          "shape": [
                            null,
                            28,
                            28,
                            192
                          ],
                          "dtype": "float32",
                          "keras_history": [
                            "block_5_expand_BN",
                            0,
                            0
                          ]
                        }
                      }
                    ],
                    "kwargs": {}
                  }
                ]
              },
              {
                "module": "keras.layers",
                "class_name": "DepthwiseConv2D",
                "config": {
                  "name": "block_5_depthwise",
                  "trainable": false,
                  "dtype": {
                    "module": "keras",
                    "class_name": "DTypePolicy",
                    "config": {
                      "name": "float32"
                    },
                    "registered_name": null
                  },
                  "depth_multiplier": 1,
                  "kernel_size": [
                    3,
                    3
                  ],
                  "strides": [
                    1,
                    1
                  ],
                  "padding": "same",
                  "data_format": "channels_last",
                  "dilation_rate": [
                    1,
                    1
                  ],
                  "activation": "linear",
                  "use_bias": false,
                  "depthwise_initializer": {
                    "module": "keras.initializers",
                    "class_name": "GlorotUniform",
                    "config": {
                      "seed": null
                    },
                    "registered_name": null
                  },
                  "bias_initializer": {
                    "module": "keras.initializers",
                    "class_name": "Zeros",
                    "config": {},
                    "registered_name": null
                  },
                  "depthwise_regularizer": null,
                  "bias_regularizer": null,
                  "activity_regularizer": null,
                  "depthwise_constraint": null,
                  "bias_constraint": null
                },
                "registered_name": null,
                "build_config": {
                  "input_shape": [
                    null,
                    28,
                    28,
                    192
                  ]
                },
                "name": "block_5_depthwise",
                "inbound_nodes": [
                  {
                    "args": [
                      {
                        "class_name": "__keras_tensor__",
                        "config": {
                          "shape": [
                            null,
                            28,
                            28,
                            192
                          ],
                          "dtype": "float32",
                          "keras_history": [
                            "block_5_expand_relu",
                            0,
                            0
                          ]
                        }
                      }
                    ],
                    "kwargs": {}
                  }
                ]
              },
              {
                "module": "keras.layers",
                "class_name": "BatchNormalization",
                "config": {
                  "name": "block_5_depthwise_BN",
                  "trainable": false,
                  "dtype": {
                    "module": "keras",
                    "class_name": "DTypePolicy",
                    "config": {
                      "name": "float32"
                    },
                    "registered_name": null
                  },
                  "axis": -1,
                  "momentum": 0.999,
                  "epsilon": 0.001,
                  "center": true,
                  "scale": true,
                  "beta_initializer": {
                    "module": "keras.initializers",
                    "class_name": "Zeros",
                    "config": {},
                    "registered_name": null
                  },
                  "gamma_initializer": {
                    "module": "keras.initializers",
                    "class_name": "Ones",
                    "config": {},
                    "registered_name": null
                  },
                  "moving_mean_initializer": {
                    "module": "keras.initializers",
                    "class_name": "Zeros",
                    "config": {},
                    "registered_name": null
                  },
                  "moving_variance_initializer": {
                    "module": "keras.initializers",
                    "class_name": "Ones",
                    "config": {},
                    "registered_name": null
                  },
                  "beta_regularizer": null,
                  "gamma_regularizer": null,
                  "beta_constraint": null,
                  "gamma_constraint": null,
                  "synchronized": false,
                  "renorm": false,
                  "renorm_clipping": null,
                  "renorm_momentum": 0.99
                },
                "registered_name": null,
                "build_config": {
                  "input_shape": [
                    null,
                    28,
                    28,
                    192
                  ]
                },
                "name": "block_5_depthwise_BN",
                "inbound_nodes": [
                  {
                    "args": [
                      {
                        "class_name": "__keras_tensor__",
                        "config": {
                          "shape": [
                            null,
                            28,
                            28,
                            192
                          ],
                          "dtype": "float32",
                          "keras_history": [
                            "block_5_depthwise",
                            0,
                            0
                          ]
                        }
                      }
                    ],
                    "kwargs": {
                      "mask": null
                    }
                  }
                ]
              },
              {
                "module": "keras.layers",
                "class_name": "ReLU",
                "config": {
                  "name": "block_5_depthwise_relu",
                  "trainable": false,
                  "dtype": {
                    "module": "keras",
                    "class_name": "DTypePolicy",
                    "config": {
                      "name": "float32"
                    },
                    "registered_name": null
                  },
                  "max_value": 6.0,
                  "negative_slope": 0.0,
                  "threshold": 0.0
                },
                "registered_name": null,
                "name": "block_5_depthwise_relu",
                "inbound_nodes": [
                  {
                    "args": [
                      {
                        "class_name": "__keras_tensor__",
                        "config": {
                          "shape": [
                            null,
                            28,
                            28,
                            192
                          ],
                          "dtype": "float32",
                          "keras_history": [
                            "block_5_depthwise_BN",
                            0,
                            0
                          ]
                        }
                      }
                    ],
                    "kwargs": {}
                  }
                ]
              },
              {
                "module": "keras.layers",
                "class_name": "Conv2D",
                "config": {
                  "name": "block_5_project",
                  "trainable": false,
                  "dtype": {
                    "module": "keras",
                    "class_name": "DTypePolicy",
                    "config": {
                      "name": "float32"
                    },
                    "registered_name": null
                  },
                  "filters": 32,
                  "kernel_size": [
                    1,
                    1
                  ],
                  "strides": [
                    1,
                    1
                  ],
                  "padding": "same",
                  "data_format": "channels_last",
                  "dilation_rate": [
                    1,
                    1
                  ],
                  "groups": 1,
                  "activation": "linear",
                  "use_bias": false,
                  "kernel_initializer": {
                    "module": "keras.initializers",
                    "class_name": "GlorotUniform",
                    "config": {
                      "seed": null
                    },
                    "registered_name": null
                  },
                  "bias_initializer": {
                    "module": "keras.initializers",
                    "class_name": "Zeros",
                    "config": {},
                    "registered_name": null
                  },
                  "kernel_regularizer": null,
                  "bias_regularizer": null,
                  "activity_regularizer": null,
                  "kernel_constraint": null,
                  "bias_constraint": null
                },
                "registered_name": null,
                "build_config": {
                  "input_shape": [
                    null,
                    28,
                    28,
                    192
                  ]
                },
                "name": "block_5_project",
                "inbound_nodes": [
                  {
                    "args": [
                      {
                        "class_name": "__keras_tensor__",
                        "config": {
                          "shape": [
                            null,
                            28,
                            28,
                            192
                          ],
                          "dtype": "float32",
                          "keras_history": [
                            "block_5_depthwise_relu",
                            0,
                            0
                          ]
                        }
                      }
                    ],
                    "kwargs": {}
                  }
                ]
              },
              {
                "module": "keras.layers",
                "class_name": "BatchNormalization",
                "config": {
                  "name": "block_5_project_BN",
                  "trainable": false,
                  "dtype": {
                    "module": "keras",
                    "class_name": "DTypePolicy",
                    "config": {
                      "name": "float32"
                    },
                    "registered_name": null
                  },
                  "axis": -1,
                  "momentum": 0.999,
                  "epsilon": 0.001,
                  "center": true,
                  "scale": true,
                  "beta_initializer": {
                    "module": "keras.initializers",
                    "class_name": "Zeros",
                    "config": {},
                    "registered_name": null
                  },
                  "gamma_initializer": {
                    "module": "keras.initializers",
                    "class_name": "Ones",
                    "config": {},
                    "registered_name": null
                  },
                  "moving_mean_initializer": {
                    "module": "keras.initializers",
                    "class_name": "Zeros",
                    "config": {},
                    "registered_name": null
                  },
                  "moving_variance_initializer": {
                    "module": "keras.initializers",
                    "class_name": "Ones",
                    "config": {},
                    "registered_name": null
                  },
                  "beta_regularizer": null,
                  "gamma_regularizer": null,
                  "beta_constraint": null,
                  "gamma_constraint": null,
                  "synchronized": false,
                  "renorm": false,
                  "renorm_clipping": null,
                  "renorm_momentum": 0.99
                },
                "registered_name": null,
                "build_config": {
                  "input_shape": [
                    null,
                    28,
                    28,
                    32
                  ]
                },
                "name": "block_5_project_BN",
                "inbound_nodes": [
                  {
                    "args": [
                      {
                        "class_name": "__keras_tensor__",
                        "config": {
                          "shape": [
                            null,
                            28,
                            28,
                            32
                          ],
                          "dtype": "float32",
                          "keras_history": [
                            "block_5_project",
                            0,
                            0
                          ]
                        }
                      }
                    ],
                    "kwargs": {
                      "mask": null
                    }
                  }
                ]
              },
              {
                "module": "keras.layers",
                "class_name": "Add",
                "config": {
                  "name": "block_5_add",
                  "trainable": false,
                  "dtype": {
                    "module": "keras",
                    "class_name": "DTypePolicy",
                    "config": {
                      "name": "float32"
                    },
                    "registered_name": null
                  }
                },
                "registered_name": null,
                "build_config": {
                  "input_shape": [
                    [
                      null,
                      28,
                      28,
                      32
                    ],
                    [
                      null,
                      28,
                      28,
                      32
                    ]
                  ]
                },
                "name": "block_5_add",
                "inbound_nodes": [
                  {
                    "args": [
                      [
                        {
                          "class_name": "__keras_tensor__",
                          "config": {
                            "shape": [
                              null,
                              28,
                              28,
                              32
                            ],
                            "dtype": "float32",
                            "keras_history": [
                              "block_4_add",
                              0,
                              0
                            ]
                          }
                        },
                        {
                          "class_name": "__keras_tensor__",
                          "config": {
                            "shape": [
                              null,
                              28,
                              28,
                              32
                            ],
                            "dtype": "float32",
                            "keras_history": [
                              "block_5_project_BN",
                              0,
                              0
                            ]
                          }
                        }
                      ]
                    ],
                    "kwargs": {}
                  }
                ]
              },
              {
                "module": "keras.layers",
                "class_name": "Conv2D",
                "config": {
                  "name": "block_6_expand",
                  "trainable": false,
                  "dtype": {
                    "module": "keras",
                    "class_name": "DTypePolicy",
                    "config": {
                      "name": "float32"
                    },
                    "registered_name": null
                  },
                  "filters": 192,
                  "kernel_size": [
                    1,
                    1
                  ],
                  "strides": [
                    1,
                    1
                  ],
                  "padding": "same",
                  "data_format": "channels_last",
                  "dilation_rate": [
                    1,
                    1
                  ],
                  "groups": 1,
                  "activation": "linear",
                  "use_bias": false,
                  "kernel_initializer": {
                    "module": "keras.initializers",
                    "class_name": "GlorotUniform",
                    "config": {
                      "seed": null
                    },
                    "registered_name": null
                  },
                  "bias_initializer": {
                    "module": "keras.initializers",
                    "class_name": "Zeros",
                    "config": {},
                    "registered_name": null
                  },
                  "kernel_regularizer": null,
                  "bias_regularizer": null,
                  "activity_regularizer": null,
                  "kernel_constraint": null,
                  "bias_constraint": null
                },
                "registered_name": null,
                "build_config": {
                  "input_shape": [
                    null,
                    28,
                    28,
                    32
                  ]
                },
                "name": "block_6_expand",
                "inbound_nodes": [
                  {
                    "args": [
                      {
                        "class_name": "__keras_tensor__",
                        "config": {
                          "shape": [
                            null,
                            28,
                            28,
                            32
                          ],
                          "dtype": "float32",
                          "keras_history": [
                            "block_5_add",
                            0,
                            0
                          ]
                        }
                      }
                    ],
                    "kwargs": {}
                  }
                ]
              },
              {
                "module": "keras.layers",
                "class_name": "BatchNormalization",
                "config": {
                  "name": "block_6_expand_BN",
                  "trainable": false,
                  "dtype": {
                    "module": "keras",
                    "class_name": "DTypePolicy",
                    "config": {
                      "name": "float32"
                    },
                    "registered_name": null
                  },
                  "axis": -1,
                  "momentum": 0.999,
                  "epsilon": 0.001,
                  "center": true,
                  "scale": true,
                  "beta_initializer": {
                    "module": "keras.initializers",
                    "class_name": "Zeros",
                    "config": {},
                    "registered_name": null
                  },
                  "gamma_initializer": {
                    "module": "keras.initializers",
                    "class_name": "Ones",
                    "config": {},
                    "registered_name": null
                  },
                  "moving_mean_initializer": {
                    "module": "keras.initializers",
                    "class_name": "Zeros",
                    "config": {},
                    "registered_name": null
                  },
                  "moving_variance_initializer": {
                    "module": "keras.initializers",
                    "class_name": "Ones",
                    "config": {},
                    "registered_name": null
                  },
                  "beta_regularizer": null,
                  "gamma_regularizer": null,
                  "beta_constraint": null,
                  "gamma_constraint": null,
                  "synchronized": false,
                  "renorm": false,
                  "renorm_clipping": null,
                  "renorm_momentum": 0.99
                },
                "registered_name": null,
                "build_config": {
                  "input_shape": [
                    null,
                    28,
                    28,
                    192
                  ]
                },
                "name": "block_6_expand_BN",
                "inbound_nodes": [
                  {
                    "args": [
                      {
                        "class_name": "__keras_tensor__",
                        "config": {
                          "shape": [
                            null,
                            28,
                            28,
                            192
                          ],
                          "dtype": "float32",
                          "keras_history": [
                            "block_6_expand",
                            0,
                            0
                          ]
                        }
                      }
                    ],
                    "kwargs": {
                      "mask": null
                    }
                  }
                ]
              },
              {
                "module": "keras.layers",
                "class_name": "ReLU",
                "config": {
                  "name": "block_6_expand_relu",
                  "trainable": false,
                  "dtype": {
                    "module": "keras",
                    "class_name": "DTypePolicy",
                    "config": {
                      "name": "float32"
                    },
                    "registered_name": null
                  },
                  "max_value": 6.0,
                  "negative_slope": 0.0,
                  "threshold": 0.0
                },
                "registered_name": null,
                "name": "block_6_expand_relu",
                "inbound_nodes": [
                  {
                    "args": [
                      {
                        "class_name": "__keras_tensor__",
                        "config": {
                          "shape": [
                            null,
                            28,
                            28,
                            192
                          ],
                          "dtype": "float32",
                          "keras_history": [
                            "block_6_expand_BN",
                            0,
                            0
                          ]
                        }
                      }
                    ],
                    "kwargs": {}
                  }
                ]
              },
              {
                "module": "keras.layers",
                "class_name": "ZeroPadding2D",
                "config": {
                  "name": "block_6_pad",
                  "trainable": false,
                  "dtype": {
                    "module": "keras",
                    "class_name": "DTypePolicy",
                    "config": {
                      "name": "float32"
                    },
                    "registered_name": null
                  },
                  "padding": [
                    [
                      0,
                      1
                    ],
                    [
                      0,
                      1
                    ]
                  ],
                  "data_format": "channels_last"
                },
                "registered_name": null,
                "build_config": {
                  "input_shape": [
                    null,
                    28,
                    28,
                    192
                  ]
                },
                "name": "block_6_pad",
                "inbound_nodes": [
                  {
                    "args": [
                      {
                        "class_name": "__keras_tensor__",
                        "config": {
                          "shape": [
                            null,
                            28,
                            28,
                            192
                          ],
                          "dtype": "float32",
                          "keras_history": [
                            "block_6_expand_relu",
                            0,
                            0
                          ]
                        }
                      }
                    ],
                    "kwargs": {}
                  }
                ]
              },
              {
                "module": "keras.layers",
                "class_name": "DepthwiseConv2D",
                "config": {
                  "name": "block_6_depthwise",
                  "trainable": false,
                  "dtype": {
                    "module": "keras",
                    "class_name": "DTypePolicy",
                    "config": {
                      "name": "float32"
                    },
                    "registered_name": null
                  },
                  "depth_multiplier": 1,
                  "kernel_size": [
                    3,
                    3
                  ],
                  "strides": [
                    2,
                    2
                  ],
                  "padding": "valid",
                  "data_format": "channels_last",
                  "dilation_rate": [
                    1,
                    1
                  ],
                  "activation": "linear",
                  "use_bias": false,
                  "depthwise_initializer": {
                    "module": "keras.initializers",
                    "class_name": "GlorotUniform",
                    "config": {
                      "seed": null
                    },
                    "registered_name": null
                  },
                  "bias_initializer": {
                    "module": "keras.initializers",
                    "class_name": "Zeros",
                    "config": {},
                    "registered_name": null
                  },
                  "depthwise_regularizer": null,
                  "bias_regularizer": null,
                  "activity_regularizer": null,
                  "depthwise_constraint": null,
                  "bias_constraint": null
                },
                "registered_name": null,
                "build_config": {
                  "input_shape": [
                    null,
                    29,
                    29,
                    192
                  ]
…
          "registered_name": "Functional",
          "build_config": {
            "input_shape": null
          },
          "compile_config": {}
        },
        {
          "module": "keras.layers",
          "class_name": "GlobalAveragePooling2D",
          "config": {
            "name": "global_average_pooling2d",
            "trainable": true,
            "dtype": {
              "module": "keras",
              "class_name": "DTypePolicy",
              "config": {
                "name": "float32"
              },
              "registered_name": null
            },
            "data_format": "channels_last",
            "keepdims": false
          },
          "registered_name": null
        },
        {
          "module": "keras.layers",
          "class_name": "Dropout",
          "config": {
            "name": "dropout",
            "trainable": true,
            "dtype": {
              "module": "keras",
              "class_name": "DTypePolicy",
              "config": {
                "name": "float32"
              },
              "registered_name": null
            },
            "rate": 0.5,
            "seed": null,
            "noise_shape": null
          },
          "registered_name": null
        },
        {
          "module": "keras.layers",
          "class_name": "Dense",
          "config": {
            "name": "dense",
            "trainable": true,
            "dtype": {
              "module": "keras",
              "class_name": "DTypePolicy",
              "config": {
                "name": "float32"
              },
              "registered_name": null
            },
            "units": 512,
            "activation": "relu",
            "use_bias": true,
            "kernel_initializer": {
              "module": "keras.initializers",
              "class_name": "GlorotUniform",
              "config": {
                "seed": null
              },
              "registered_name": null
            },
            "bias_initializer": {
              "module": "keras.initializers",
              "class_name": "Zeros",
              "config": {},
              "registered_name": null
            },
            "kernel_regularizer": null,
            "bias_regularizer": null,
            "kernel_constraint": null,
            "bias_constraint": null,
            "quantization_config": null
          },
          "registered_name": null,
          "build_config": {
            "input_shape": [
              null,
              1280
            ]
          }
        },
        {
          "module": "keras.layers",
          "class_name": "Dropout",
          "config": {
            "name": "dropout_1",
            "trainable": true,
            "dtype": {
              "module": "keras",
              "class_name": "DTypePolicy",
              "config": {
                "name": "float32"
              },
              "registered_name": null
            },
            "rate": 0.3,
            "seed": null,
            "noise_shape": null
          },
          "registered_name": null
        },
        {
          "module": "keras.layers",
          "class_name": "Dense",
          "config": {
            "name": "dense_1",
            "trainable": true,
            "dtype": {
              "module": "keras",
              "class_name": "DTypePolicy",
              "config": {
                "name": "float32"
              },
              "registered_name": null
            },
            "units": 151,
            "activation": "softmax",
            "use_bias": true,
            "kernel_initializer": {
              "module": "keras.initializers",
              "class_name": "GlorotUniform",
              "config": {
                "seed": null
              },
              "registered_name": null
            },
            "bias_initializer": {
              "module": "keras.initializers",
              "class_name": "Zeros",
              "config": {},
              "registered_name": null
            },
            "kernel_regularizer": null,
            "bias_regularizer": null,
            "kernel_constraint": null,
            "bias_constraint": null,
            "quantization_config": null
          },
          "registered_name": null,
          "build_config": {
            "input_shape": [
              null,
              512
            ]
          }
        }
      ],
      "build_input_shape": [
        null,
        224,
        224,
        3
      ]
    }
  },
  "weightsManifest": [
    {
      "paths": [
        "weights_0.bin",
        "weights_1.bin",
        "weights_2.bin",
        "weights_3.bin",
        "weights_4.bin",
        "weights_5.bin",
        "weights_6.bin",
        "weights_7.bin",
        "weights_8.bin",
        "weights_9.bin",
        "weights_10.bin",
        "weights_11.bin",
        "weights_12.bin",
        "weights_13.bin",
        "weights_14.bin",
        "weights_15.bin",
        "weights_16.bin",
        "weights_17.bin",
        "weights_18.bin",
        "weights_19.bin",
        "weights_20.bin",
        "weights_21.bin",
        "weights_22.bin",
        "weights_23.bin",
        "weights_24.bin",
        "weights_25.bin",
        "weights_26.bin",
        "weights_27.bin",
        "weights_28.bin",
        "weights_29.bin",
        "weights_30.bin",
        "weights_31.bin",
        "weights_32.bin",
        "weights_33.bin",
        "weights_34.bin",
        "weights_35.bin",
        "weights_36.bin",
        "weights_37.bin",
        "weights_38.bin",
        "weights_39.bin",
        "weights_40.bin",
        "weights_41.bin",
        "weights_42.bin",
        "weights_43.bin",
        "weights_44.bin",
        "weights_45.bin",
        "weights_46.bin",
        "weights_47.bin",
        "weights_48.bin",
        "weights_49.bin",
        "weights_50.bin",
        "weights_51.bin",
        "weights_52.bin",
        "weights_53.bin",
        "weights_54.bin",
        "weights_55.bin",
        "weights_56.bin",
        "weights_57.bin",
        "weights_58.bin",
        "weights_59.bin",
        "weights_60.bin",
        "weights_61.bin",
        "weights_62.bin",
        "weights_63.bin",
        "weights_64.bin",
        "weights_65.bin",
        "weights_66.bin",
        "weights_67.bin",
        "weights_68.bin",
        "weights_69.bin",
        "weights_70.bin",
        "weights_71.bin",
        "weights_72.bin",
        "weights_73.bin",
        "weights_74.bin",
        "weights_75.bin",
        "weights_76.bin",
        "weights_77.bin",
        "weights_78.bin",
        "weights_79.bin",
        "weights_80.bin",
        "weights_81.bin",
        "weights_82.bin",
        "weights_83.bin",
        "weights_84.bin",
        "weights_85.bin",
        "weights_86.bin",
        "weights_87.bin",
        "weights_88.bin",
        "weights_89.bin",
        "weights_90.bin",
        "weights_91.bin",
        "weights_92.bin",
        "weights_93.bin",
        "weights_94.bin",
        "weights_95.bin",
        "weights_96.bin",
        "weights_97.bin",
        "weights_98.bin",
        "weights_99.bin",
        "weights_100.bin",
        "weights_101.bin",
        "weights_102.bin",
        "weights_103.bin",
        "weights_104.bin",
        "weights_105.bin",
        "weights_106.bin",
        "weights_107.bin",
        "weights_108.bin",
        "weights_109.bin",
        "weights_110.bin",
        "weights_111.bin",
        "weights_112.bin",
        "weights_113.bin",
        "weights_114.bin",
        "weights_115.bin",
        "weights_116.bin",
        "weights_117.bin",
        "weights_118.bin",
        "weights_119.bin",
        "weights_120.bin",
        "weights_121.bin",
        "weights_122.bin",
        "weights_123.bin",
        "weights_124.bin",
        "weights_125.bin",
        "weights_126.bin",
        "weights_127.bin",
        "weights_128.bin",
        "weights_129.bin",
        "weights_130.bin",
        "weights_131.bin",
        "weights_132.bin",
        "weights_133.bin",
        "weights_134.bin",
        "weights_135.bin",
        "weights_136.bin",
        "weights_137.bin",
        "weights_138.bin",
        "weights_139.bin",
        "weights_140.bin",
        "weights_141.bin",
        "weights_142.bin",
        "weights_143.bin",
        "weights_144.bin",
        "weights_145.bin",
        "weights_146.bin",
        "weights_147.bin",
        "weights_148.bin",
        "weights_149.bin",
        "weights_150.bin",
        "weights_151.bin",
        "weights_152.bin",
        "weights_153.bin",
        "weights_154.bin",
        "weights_155.bin",
        "weights_156.bin",
        "weights_157.bin",
        "weights_158.bin",
        "weights_159.bin",
        "weights_160.bin",
        "weights_161.bin",
        "weights_162.bin",
        "weights_163.bin",
        "weights_164.bin",
        "weights_165.bin",
        "weights_166.bin",
        "weights_167.bin",
        "weights_168.bin",
        "weights_169.bin",
        "weights_170.bin",
        "weights_171.bin",
        "weights_172.bin",
        "weights_173.bin",
        "weights_174.bin",
        "weights_175.bin",
        "weights_176.bin",
        "weights_177.bin",
        "weights_178.bin",
        "weights_179.bin",
        "weights_180.bin",
        "weights_181.bin",
        "weights_182.bin",
        "weights_183.bin",
        "weights_184.bin",
        "weights_185.bin",
        "weights_186.bin",
        "weights_187.bin",
        "weights_188.bin",
        "weights_189.bin",
        "weights_190.bin",
        "weights_191.bin",
        "weights_192.bin",
        "weights_193.bin",
        "weights_194.bin",
        "weights_195.bin",
        "weights_196.bin",
        "weights_197.bin",
        "weights_198.bin",
        "weights_199.bin",
        "weights_200.bin",
        "weights_201.bin",
        "weights_202.bin",
        "weights_203.bin",
        "weights_204.bin",
        "weights_205.bin",
        "weights_206.bin",
        "weights_207.bin",
        "weights_208.bin",
        "weights_209.bin",
        "weights_210.bin",
        "weights_211.bin",
        "weights_212.bin",
        "weights_213.bin",
        "weights_214.bin",
        "weights_215.bin",
        "weights_216.bin",
        "weights_217.bin",
        "weights_218.bin",
        "weights_219.bin",
        "weights_220.bin",
        "weights_221.bin",
        "weights_222.bin",
        "weights_223.bin",
        "weights_224.bin",
        "weights_225.bin",
        "weights_226.bin",
        "weights_227.bin",
        "weights_228.bin",
        "weights_229.bin",
        "weights_230.bin",
        "weights_231.bin",
        "weights_232.bin",
        "weights_233.bin",
        "weights_234.bin",
        "weights_235.bin",
        "weights_236.bin",
        "weights_237.bin",
        "weights_238.bin",
        "weights_239.bin",
        "weights_240.bin",
        "weights_241.bin",
        "weights_242.bin",
        "weights_243.bin",
        "weights_244.bin",
        "weights_245.bin",
        "weights_246.bin",
        "weights_247.bin",
        "weights_248.bin",
        "weights_249.bin",
        "weights_250.bin",
        "weights_251.bin",
        "weights_252.bin",
        "weights_253.bin",
        "weights_254.bin",
        "weights_255.bin",
        "weights_256.bin",
        "weights_257.bin",
        "weights_258.bin",
        "weights_259.bin",
        "weights_260.bin",
        "weights_261.bin",
        "weights_262.bin",
        "weights_263.bin"
      ],
      "weights": [
        {
          "name": "weights_0.bin",
          "shape": [
            3,
            3,
            3,
            32
          ],
          "dtype": "float32"
        },
        {
          "name": "weights_1.bin",
          "shape": [
            32
          ],
          "dtype": "float32"
        },
        {
          "name": "weights_2.bin",
          "shape": [
            32
          ],
          "dtype": "float32"
        },
        {
          "name": "weights_3.bin",
          "shape": [
            32
          ],
          "dtype": "float32"
        },
        {
          "name": "weights_4.bin",
          "shape": [
            32
          ],
          "dtype": "float32"
        },
        {
          "name": "weights_5.bin",
          "shape": [
            3,
            3,
            32,
            1
          ],
          "dtype": "float32"
        },
        {
          "name": "weights_6.bin",
          "shape": [
            32
          ],
          "dtype": "float32"
        },
        {
          "name": "weights_7.bin",
          "shape": [
            32
          ],
          "dtype": "float32"
        },
        {
          "name": "weights_8.bin",
          "shape": [
            32
          ],
          "dtype": "float32"
        },
        {
          "name": "weights_9.bin",
          "shape": [
            32
          ],
          "dtype": "float32"
        },
        {
          "name": "weights_10.bin",
          "shape": [
            1,
            1,
            32,
            16
          ],
          "dtype": "float32"
        },
        {
          "name": "weights_11.bin",
          "shape": [
            16
          ],
          "dtype": "float32"
        },
        {
          "name": "weights_12.bin",
          "shape": [
            16
          ],
          "dtype": "float32"
        },
        {
          "name": "weights_13.bin",
          "shape": [
            16
          ],
          "dtype": "float32"
        },
        {
          "name": "weights_14.bin",
          "shape": [
            16
          ],
          "dtype": "float32"
        },
        {
          "name": "weights_15.bin",
          "shape": [
            1,
            1,
            16,
            96
          ],
          "dtype": "float32"
        },
        {
          "name": "weights_16.bin",
          "shape": [
            96
          ],
          "dtype": "float32"
        },
        {
          "name": "weights_17.bin",
          "shape": [
            96
          ],
          "dtype": "float32"
        },
        {
          "name": "weights_18.bin",
          "shape": [
            96
          ],
          "dtype": "float32"
        },
        {
          "name": "weights_19.bin",
          "shape": [
            96
          ],
          "dtype": "float32"
        },
        {
          "name": "weights_20.bin",
          "shape": [
            3,
            3,
            96,
            1
          ],
          "dtype": "float32"
        },
        {
          "name": "weights_21.bin",
          "shape": [
            96
          ],
          "dtype": "float32"
        },
        {
          "name": "weights_22.bin",
          "shape": [
            96
          ],
          "dtype": "float32"
        },
        {
          "name": "weights_23.bin",
          "shape": [
            96
          ],
          "dtype": "float32"
        },
        {
          "name": "weights_24.bin",
          "shape": [
            96
          ],
          "dtype": "float32"
        },
        {
          "name": "weights_25.bin",
          "shape": [
            1,
            1,
            96,
            24
          ],
          "dtype": "float32"
        },
        {
          "name": "weights_26.bin",
          "shape": [
            24
          ],
          "dtype": "float32"
        },
        {
          "name": "weights_27.bin",
          "shape": [
            24
          ],
          "dtype": "float32"
        },
        {
          "name": "weights_28.bin",
          "shape": [
            24
          ],
          "dtype": "float32"
        },
        {
          "name": "weights_29.bin",
          "shape": [
            24
          ],
          "dtype": "float32"
        },
        {
          "name": "weights_30.bin",
          "shape": [
            1,
            1,
            24,
            144
          ],
          "dtype": "float32"
        },
        {
          "name": "weights_31.bin",
          "shape": [
            144
          ],
          "dtype": "float32"
        },
        {
          "name": "weights_32.bin",
          "shape": [
            144
          ],
          "dtype": "float32"
        },
        {
          "name": "weights_33.bin",
          "shape": [
            144
          ],
          "dtype": "float32"
        },
        {
          "name": "weights_34.bin",
          "shape": [
            144
          ],
          "dtype": "float32"
        },
        {
          "name": "weights_35.bin",
          "shape": [
            3,
            3,
            144,
            1
          ],
          "dtype": "float32"
        },
        {
          "name": "weights_36.bin",
          "shape": [
            144
          ],
          "dtype": "float32"
        },
        {
          "name": "weights_37.bin",
          "shape": [
            144
          ],
          "dtype": "float32"
        },
        {
          "name": "weights_38.bin",
          "shape": [
            144
          ],
          "dtype": "float32"
        },
        {
          "name": "weights_39.bin",
          "shape": [
            144
          ],
          "dtype": "float32"
        },
        {
          "name": "weights_40.bin",
          "shape": [
            1,
            1,
            144,
            24
          ],
          "dtype": "float32"
        },
        {
          "name": "weights_41.bin",
          "shape": [
            24
          ],
          "dtype": "float32"
        },
        {
          "name": "weights_42.bin",
          "shape": [
            24
          ],
          "dtype": "float32"
        },
        {
          "name": "weights_43.bin",
          "shape": [
            24
          ],
          "dtype": "float32"
        },
        {
          "name": "weights_44.bin",
          "shape": [
            24
          ],
          "dtype": "float32"
        },
        {
          "name": "weights_45.bin",
          "shape": [
            1,
            1,
            24,
            144
          ],
          "dtype": "float32"
        },
        {
          "name": "weights_46.bin",
          "shape": [
            144
          ],
          "dtype": "float32"
        },
        {
          "name": "weights_47.bin",
          "shape": [
            144
          ],
          "dtype": "float32"
        },
        {
          "name": "weights_48.bin",
          "shape": [
            144
          ],
          "dtype": "float32"
        },
        {
          "name": "weights_49.bin",
          "shape": [
            144
          ],
          "dtype": "float32"
        },
        {
          "name": "weights_50.bin",
          "shape": [
            3,
            3,
            144,
            1
          ],
          "dtype": "float32"
        },
        {
          "name": "weights_51.bin",
          "shape": [
            144
          ],
          "dtype": "float32"
        },
        {
          "name": "weights_52.bin",
          "shape": [
            144
          ],
          "dtype": "float32"
        },
        {
          "name": "weights_53.bin",
          "shape": [
            144
          ],
          "dtype": "float32"
        },
        {
          "name": "weights_54.bin",
          "shape": [
            144
          ],
          "dtype": "float32"
        },
        {
          "name": "weights_55.bin",
          "shape": [
            1,
            1,
            144,
            32
          ],
          "dtype": "float32"
        },
        {
          "name": "weights_56.bin",
          "shape": [
            32
          ],
          "dtype": "float32"
        },
        {
          "name": "weights_57.bin",
          "shape": [
            32
          ],
          "dtype": "float32"
        },
        {
          "name": "weights_58.bin",
          "shape": [
            32
          ],
          "dtype": "float32"
        },
        {
          "name": "weights_59.bin",
          "shape": [
            32
          ],
          "dtype": "float32"
        },
        {
          "name": "weights_60.bin",
          "shape": [
            1,
            1,
            32,
            192
          ],
          "dtype": "float32"
        },
        {
          "name": "weights_61.bin",
          "shape": [
            192
          ],
          "dtype": "float32"
        },
        {
          "name": "weights_62.bin",
          "shape": [
            192
          ],
          "dtype": "float32"
        },
        {
          "name": "weights_63.bin",
          "shape": [
            192
          ],
          "dtype": "float32"
        },
        {
          "name": "weights_64.bin",
          "shape": [
            192
          ],
          "dtype": "float32"
        },
        {
          "name": "weights_65.bin",
          "shape": [
            3,
            3,
            192,
            1
          ],
          "dtype": "float32"
        },
        {
          "name": "weights_66.bin",
          "shape": [
            192
          ],
          "dtype": "float32"
        },
        {
          "name": "weights_67.bin",
          "shape": [
            192
          ],
          "dtype": "float32"
        },
        {
          "name": "weights_68.bin",
          "shape": [
            192
          ],
          "dtype": "float32"
        },
        {
          "name": "weights_69.bin",
          "shape": [
            192
          ],
          "dtype": "float32"
        },
        {
          "name": "weights_70.bin",
          "shape": [
            1,
            1,
            192,
            32
          ],
          "dtype": "float32"
        },
        {
          "name": "weights_71.bin",
          "shape": [
            32
          ],
          "dtype": "float32"
        },
        {
          "name": "weights_72.bin",
          "shape": [
            32
          ],
          "dtype": "float32"
        },
        {
          "name": "weights_73.bin",
          "shape": [
            32
          ],
          "dtype": "float32"
        },
        {
          "name": "weights_74.bin",
          "shape": [
            32
          ],
          "dtype": "float32"
        },
        {
          "name": "weights_75.bin",
          "shape": [
            1,
            1,
            32,
            192
          ],
          "dtype": "float32"
        },
        {
          "name": "weights_76.bin",
          "shape": [
            192
          ],
          "dtype": "float32"
        },
        {
          "name": "weights_77.bin",
          "shape": [
            192
          ],
          "dtype": "float32"
        },
        {
          "name": "weights_78.bin",
          "shape": [
            192
          ],
          "dtype": "float32"
        },
        {
          "name": "weights_79.bin",
          "shape": [
            192
          ],
          "dtype": "float32"
        },
        {
          "name": "weights_80.bin",
          "shape": [
            3,
            3,
            192,
            1
          ],
          "dtype": "float32"
        },
        {
          "name": "weights_81.bin",
          "shape": [
            192
          ],
          "dtype": "float32"
        },
        {
          "name": "weights_82.bin",
          "shape": [
            192
          ],
          "dtype": "float32"
        },
        {
          "name": "weights_83.bin",
          "shape": [
            192
          ],
          "dtype": "float32"
        },
        {
          "name": "weights_84.bin",
          "shape": [
            192
          ],
          "dtype": "float32"
        },
        {
          "name": "weights_85.bin",
          "shape": [
            1,
            1,
            192,
            32
          ],
          "dtype": "float32"
        },
        {
          "name": "weights_86.bin",
          "shape": [
            32
          ],
          "dtype": "float32"
        },
        {
          "name": "weights_87.bin",
          "shape": [
            32
          ],
          "dtype": "float32"
        },
        {
          "name": "weights_88.bin",
          "shape": [
            32
          ],
          "dtype": "float32"
        },
        {
          "name": "weights_89.bin",
          "shape": [
            32
          ],
          "dtype": "float32"
        },
        {
          "name": "weights_90.bin",
          "shape": [
            1,
            1,
            32,
            192
          ],
          "dtype": "float32"
        },
        {
          "name": "weights_91.bin",
          "shape": [
            192
          ],
          "dtype": "float32"
        },
        {
          "name": "weights_92.bin",
          "shape": [
            192
          ],
          "dtype": "float32"
        },
        {
          "name": "weights_93.bin",
          "shape": [
            192
          ],
          "dtype": "float32"
        },
        {
          "name": "weights_94.bin",
          "shape": [
            192
          ],
          "dtype": "float32"
        },
        {
          "name": "weights_95.bin",
          "shape": [
            3,
            3,
            192,
            1
          ],
          "dtype": "float32"
        },
        {
          "name": "weights_96.bin",
          "shape": [
            192
          ],
          "dtype": "float32"
        },
        {
          "name": "weights_97.bin",
          "shape": [
            192
          ],
          "dtype": "float32"
        },
        {
          "name": "weights_98.bin",
          "shape": [
            192
          ],
          "dtype": "float32"
        },
        {
          "name": "weights_99.bin",
          "shape": [
            192
          ],
          "dtype": "float32"
        },
        {
          "name": "weights_100.bin",
          "shape": [
            1,
            1,
            192,
            64
          ],
          "dtype": "float32"
        },
        {
          "name": "weights_101.bin",
          "shape": [
            64
          ],
          "dtype": "float32"
        },
        {
          "name": "weights_102.bin",
          "shape": [
            64
          ],
          "dtype": "float32"
        },
        {
          "name": "weights_103.bin",
          "shape": [
            64
          ],
          "dtype": "float32"
        },
        {
          "name": "weights_104.bin",
          "shape": [
            64
          ],
          "dtype": "float32"
        },
        {
          "name": "weights_105.bin",
          "shape": [
            1,
            1,
            64,
            384
          ],
          "dtype": "float32"
        },
        {
          "name": "weights_106.bin",
          "shape": [
            384
          ],
          "dtype": "float32"
        },
        {
          "name": "weights_107.bin",
          "shape": [
            384
          ],
          "dtype": "float32"
        },
        {
          "name": "weights_108.bin",
          "shape": [
            384
          ],
          "dtype": "float32"
        },
        {
          "name": "weights_109.bin",
          "shape": [
            384
          ],
          "dtype": "float32"
        },
        {
          "name": "weights_110.bin",
          "shape": [
            3,
            3,
            384,
            1
          ],
          "dtype": "float32"
        },
        {
          "name": "weights_111.bin",
          "shape": [
            384
          ],
          "dtype": "float32"
        },
        {
          "name": "weights_112.bin",
          "shape": [
            384
          ],
          "dtype": "float32"
        },
        {
          "name": "weights_113.bin",
          "shape": [
            384
          ],
          "dtype": "float32"
        },
        {
          "name": "weights_114.bin",
          "shape": [
            384
          ],
          "dtype": "float32"
        },
        {
          "name": "weights_115.bin",
          "shape": [
            1,
            1,
            384,
            64
          ],
          "dtype": "float32"
        },
        {
          "name": "weights_116.bin",
          "shape": [
            64
          ],
          "dtype": "float32"
        },
        {
          "name": "weights_117.bin",
          "shape": [
            64
          ],
          "dtype": "float32"
        },
        {
          "name": "weights_118.bin",
          "shape": [
            64
          ],
          "dtype": "float32"
        },
        {
          "name": "weights_119.bin",
          "shape": [
            64
          ],
          "dtype": "float32"
        },
        {
          "name": "weights_120.bin",
          "shape": [
            1,
            1,
            64,
            384
          ],
          "dtype": "float32"
        },
        {
          "name": "weights_121.bin",
          "shape": [
            384
          ],
          "dtype": "float32"
        },
        {
          "name": "weights_122.bin",
          "shape": [
            384
          ],
          "dtype": "float32"
        },
        {
          "name": "weights_123.bin",
          "shape": [
            384
          ],
          "dtype": "float32"
        },
        {
          "name": "weights_124.bin",
          "shape": [
            384
          ],
          "dtype": "float32"
        },
        {
          "name": "weights_125.bin",
          "shape": [
            3,
            3,
            384,
            1
          ],
          "dtype": "float32"
        },
        {
          "name": "weights_126.bin",
          "shape": [
            384
          ],
          "dtype": "float32"
        },
        {
          "name": "weights_127.bin",
          "shape": [
            384
          ],
          "dtype": "float32"
        },
        {
          "name": "weights_128.bin",
          "shape": [
            384
          ],
          "dtype": "float32"
        },
        {
          "name": "weights_129.bin",
          "shape": [
            384
          ],
          "dtype": "float32"
        },
        {
          "name": "weights_130.bin",
          "shape": [
            1,
            1,
            384,
            64
          ],
          "dtype": "float32"
        },
        {
          "name": "weights_131.bin",
          "shape": [
            64
          ],
          "dtype": "float32"
        },
        {
          "name": "weights_132.bin",
          "shape": [
            64
          ],
          "dtype": "float32"
        },
        {
          "name": "weights_133.bin",
          "shape": [
            64
          ],
          "dtype": "float32"
        },
        {
          "name": "weights_134.bin",
          "shape": [
            64
          ],
          "dtype": "float32"
        },
        {
          "name": "weights_135.bin",
          "shape": [
            1,
            1,
            64,
            384
          ],
          "dtype": "float32"
        },
        {
          "name": "weights_136.bin",
          "shape": [
            384
          ],
          "dtype": "float32"
        },
        {
          "name": "weights_137.bin",
          "shape": [
            384
          ],
          "dtype": "float32"
        },
        {
          "name": "weights_138.bin",
          "shape": [
            384
          ],
          "dtype": "float32"
        },
        {
          "name": "weights_139.bin",
          "shape": [
            384
          ],
          "dtype": "float32"
        },
        {
          "name": "weights_140.bin",
          "shape": [
            3,
            3,
            384,
            1
          ],
          "dtype": "float32"
        },
        {
          "name": "weights_141.bin",
          "shape": [
            384
          ],
          "dtype": "float32"
        },
        {
          "name": "weights_142.bin",
          "shape": [
            384
          ],
          "dtype": "float32"
        },
        {
          "name": "weights_143.bin",
          "shape": [
            384
          ],
          "dtype": "float32"
        },
        {
          "name": "weights_144.bin",
          "shape": [
            384
          ],
          "dtype": "float32"
        },
        {
          "name": "weights_145.bin",
          "shape": [
            1,
            1,
            384,
            64
          ],
          "dtype": "float32"
        },
        {
          "name": "weights_146.bin",
          "shape": [
            64
          ],
          "dtype": "float32"
        },
        {
          "name": "weights_147.bin",
          "shape": [
            64
          ],
          "dtype": "float32"
        },
        {
          "name": "weights_148.bin",
          "shape": [
            64
          ],
          "dtype": "float32"
        },
        {
          "name": "weights_149.bin",
          "shape": [
            64
          ],
          "dtype": "float32"
        },
        {
          "name": "weights_150.bin",
          "shape": [
            1,
            1,
            64,
            384
          ],
          "dtype": "float32"
        },
        {
          "name": "weights_151.bin",
          "shape": [
            384
          ],
          "dtype": "float32"
        },
        {
          "name": "weights_152.bin",
          "shape": [
            384
          ],
          "dtype": "float32"
        },
        {
          "name": "weights_153.bin",
          "shape": [
            384
          ],
          "dtype": "float32"
        },
        {
          "name": "weights_154.bin",
          "shape": [
            384
          ],
          "dtype": "float32"
        },
        {
          "name": "weights_155.bin",
          "shape": [
            3,
            3,
            384,
            1
          ],
          "dtype": "float32"
        },
        {
          "name": "weights_156.bin",
          "shape": [
            384
          ],
          "dtype": "float32"
        },
        {
          "name": "weights_157.bin",
          "shape": [
            384
          ],
          "dtype": "float32"
        },
        {
          "name": "weights_158.bin",
          "shape": [
            384
          ],
          "dtype": "float32"
        },
        {
          "name": "weights_159.bin",
          "shape": [
            384
          ],
          "dtype": "float32"
        },
        {
          "name": "weights_160.bin",
          "shape": [
            1,
            1,
            384,
            96
          ],
          "dtype": "float32"
        },
        {
          "name": "weights_161.bin",
          "shape": [
            96
          ],
          "dtype": "float32"
        },
        {
          "name": "weights_162.bin",
          "shape": [
            96
          ],
          "dtype": "float32"
        },
        {
          "name": "weights_163.bin",
          "shape": [
            96
          ],
          "dtype": "float32"
        },
        {
          "name": "weights_164.bin",
          "shape": [
            96
          ],
          "dtype": "float32"
        },
        {
          "name": "weights_165.bin",
          "shape": [
            1,
            1,
            96,
            576
          ],
          "dtype": "float32"
        },
        {
          "name": "weights_166.bin",
          "shape": [
            576
          ],
          "dtype": "float32"
        },
        {
          "name": "weights_167.bin",
          "shape": [
            576
          ],
          "dtype": "float32"
        },
        {
          "name": "weights_168.bin",
          "shape": [
            576
          ],
          "dtype": "float32"
        },
        {
          "name": "weights_169.bin",
          "shape": [
            576
          ],
          "dtype": "float32"
        },
        {
          "name": "weights_170.bin",
          "shape": [
            3,
            3,
            576,
            1
          ],
          "dtype": "float32"
        },
        {
          "name": "weights_171.bin",
          "shape": [
            576
          ],
          "dtype": "float32"
        },
        {
          "name": "weights_172.bin",
          "shape": [
            576
          ],
          "dtype": "float32"
        },
        {
          "name": "weights_173.bin",
          "shape": [
            576
          ],
          "dtype": "float32"
        },
        {
          "name": "weights_174.bin",
          "shape": [
            576
          ],
          "dtype": "float32"
        },
        {
          "name": "weights_175.bin",
          "shape": [
            1,
            1,
            576,
            96
          ],
          "dtype": "float32"
        },
        {
          "name": "weights_176.bin",
          "shape": [
            96
          ],
          "dtype": "float32"
        },
        {
          "name": "weights_177.bin",
          "shape": [
            96
          ],
          "dtype": "float32"
        },
        {
          "name": "weights_178.bin",
          "shape": [
            96
          ],
          "dtype": "float32"
        },
        {
          "name": "weights_179.bin",
          "shape": [
            96
          ],
          "dtype": "float32"
        },
        {
          "name": "weights_180.bin",
          "shape": [
            1,
            1,
            96,
            576
          ],
          "dtype": "float32"
        },
        {
          "name": "weights_181.bin",
          "shape": [
            576
          ],
          "dtype": "float32"
        },
        {
          "name": "weights_182.bin",
          "shape": [
            576
          ],
          "dtype": "float32"
        },
        {
          "name": "weights_183.bin",
          "shape": [
            576
          ],
          "dtype": "float32"
        },
        {
          "name": "weights_184.bin",
          "shape": [
            576
          ],
          "dtype": "float32"
        },
        {
          "name": "weights_185.bin",
          "shape": [
            3,
            3,
            576,
            1
          ],
          "dtype": "float32"
        },
        {
          "name": "weights_186.bin",
          "shape": [
            576
          ],
          "dtype": "float32"
        },
        {
          "name": "weights_187.bin",
          "shape": [
            576
          ],
          "dtype": "float32"
        },
        {
          "name": "weights_188.bin",
          "shape": [
            576
          ],
          "dtype": "float32"
        },
        {
          "name": "weights_189.bin",
          "shape": [
            576
          ],
          "dtype": "float32"
        },
        {
          "name": "weights_190.bin",
          "shape": [
            1,
            1,
            576,
            96
          ],
          "dtype": "float32"
        },
        {
          "name": "weights_191.bin",
          "shape": [
            96
          ],
          "dtype": "float32"
        },
        {
          "name": "weights_192.bin",
          "shape": [
            96
          ],
          "dtype": "float32"
        },
        {
          "name": "weights_193.bin",
          "shape": [
            96
          ],
          "dtype": "float32"
        },
        {
          "name": "weights_194.bin",
          "shape": [
            96
          ],
          "dtype": "float32"
        },
        {
          "name": "weights_195.bin",
          "shape": [
            1,
            1,
            96,
            576
          ],
          "dtype": "float32"
        },
        {
          "name": "weights_196.bin",
          "shape": [
            576
          ],
          "dtype": "float32"
        },
        {
          "name": "weights_197.bin",
          "shape": [
            576
          ],
          "dtype": "float32"
        },
        {
          "name": "weights_198.bin",
          "shape": [
            576
          ],
          "dtype": "float32"
        },
        {
          "name": "weights_199.bin",
          "shape": [
            576
          ],
          "dtype": "float32"
        },
        {
          "name": "weights_200.bin",
          "shape": [
            3,
            3,
            576,
            1
          ],
          "dtype": "float32"
        },
        {
          "name": "weights_201.bin",
          "shape": [
            576
          ],
          "dtype": "float32"
        },
        {
          "name": "weights_202.bin",
          "shape": [
            576
          ],
          "dtype": "float32"
        },
        {
          "name": "weights_203.bin",
          "shape": [
            576
          ],
          "dtype": "float32"
        },
        {
          "name": "weights_204.bin",
          "shape": [
            576
          ],
          "dtype": "float32"
        },
        {
          "name": "weights_205.bin",
          "shape": [
            1,
            1,
            576,
            160
          ],
          "dtype": "float32"
        },
        {
          "name": "weights_206.bin",
          "shape": [
            160
          ],
          "dtype": "float32"
        },
        {
          "name": "weights_207.bin",
          "shape": [
            160
          ],
          "dtype": "float32"
        },
        {
          "name": "weights_208.bin",
          "shape": [
            160
          ],
          "dtype": "float32"
        },
        {
          "name": "weights_209.bin",
          "shape": [
            160
          ],
          "dtype": "float32"
        },
        {
          "name": "weights_210.bin",
          "shape": [
            1,
            1,
            160,
            960
          ],
          "dtype": "float32"
        },
        {
          "name": "weights_211.bin",
          "shape": [
            960
          ],
          "dtype": "float32"
        },
        {
          "name": "weights_212.bin",
          "shape": [
            960
          ],
          "dtype": "float32"
        },
        {
          "name": "weights_213.bin",
          "shape": [
            960
          ],
          "dtype": "float32"
        },
        {
          "name": "weights_214.bin",
          "shape": [
            960
          ],
          "dtype": "float32"
        },
        {
          "name": "weights_215.bin",
          "shape": [
            3,
            3,
            960,
            1
          ],
          "dtype": "float32"
        },
        {
          "name": "weights_216.bin",
          "shape": [
            960
          ],
          "dtype": "float32"
        },
        {
          "name": "weights_217.bin",
          "shape": [
            960
          ],
          "dtype": "float32"
        },
        {
          "name": "weights_218.bin",
          "shape": [
            960
          ],
          "dtype": "float32"
        },
        {
          "name": "weights_219.bin",
          "shape": [
            960
          ],
          "dtype": "float32"
        },
        {
          "name": "weights_220.bin",
          "shape": [
            1,
            1,
            960,
            160
          ],
          "dtype": "float32"
        },
        {
          "name": "weights_221.bin",
          "shape": [
            160
          ],
          "dtype": "float32"
        },
        {
          "name": "weights_222.bin",
          "shape": [
            160
          ],
          "dtype": "float32"
        },
        {
          "name": "weights_223.bin",
          "shape": [
            160
          ],
          "dtype": "float32"
        },
        {
          "name": "weights_224.bin",
          "shape": [
            160
          ],
          "dtype": "float32"
        },
        {
          "name": "weights_225.bin",
          "shape": [
            1,
            1,
            160,
            960
          ],
          "dtype": "float32"
        },
        {
          "name": "weights_226.bin",
          "shape": [
            960
          ],
          "dtype": "float32"
        },
        {
          "name": "weights_227.bin",
          "shape": [
            960
          ],
          "dtype": "float32"
        },
        {
          "name": "weights_228.bin",
          "shape": [
            960
          ],
          "dtype": "float32"
        },
        {
          "name": "weights_229.bin",
          "shape": [
            960
          ],
          "dtype": "float32"
        },
        {
          "name": "weights_230.bin",
          "shape": [
            3,
            3,
            960,
            1
          ],
          "dtype": "float32"
        },
        {
          "name": "weights_231.bin",
          "shape": [
            960
          ],
          "dtype": "float32"
        },
        {
          "name": "weights_232.bin",
          "shape": [
            960
          ],
          "dtype": "float32"
        },
        {
          "name": "weights_233.bin",
          "shape": [
            960
          ],
          "dtype": "float32"
        },
        {
          "name": "weights_234.bin",
          "shape": [
            960
          ],
          "dtype": "float32"
        },
        {
          "name": "weights_235.bin",
          "shape": [
            1,
            1,
            960,
            160
          ],
          "dtype": "float32"
        },
        {
          "name": "weights_236.bin",
          "shape": [
            160
          ],
          "dtype": "float32"
        },
        {
          "name": "weights_237.bin",
          "shape": [
            160
          ],
          "dtype": "float32"
        },
        {
          "name": "weights_238.bin",
          "shape": [
            160
          ],
          "dtype": "float32"
        },
        {
          "name": "weights_239.bin",
          "shape": [
            160
          ],
          "dtype": "float32"
        },
        {
          "name": "weights_240.bin",
          "shape": [
            1,
            1,
            160,
            960
          ],
          "dtype": "float32"
        },
        {
          "name": "weights_241.bin",
          "shape": [
            960
          ],
          "dtype": "float32"
        },
        {
          "name": "weights_242.bin",
          "shape": [
            960
          ],
          "dtype": "float32"
        },
        {
          "name": "weights_243.bin",
          "shape": [
            960
          ],
          "dtype": "float32"
        },
        {
          "name": "weights_244.bin",
          "shape": [
            960
          ],
          "dtype": "float32"
        },
        {
          "name": "weights_245.bin",
          "shape": [
            3,
            3,
            960,
            1
          ],
          "dtype": "float32"
        },
        {
          "name": "weights_246.bin",
          "shape": [
            960
          ],
          "dtype": "float32"
        },
        {
          "name": "weights_247.bin",
          "shape": [
            960
          ],
          "dtype": "float32"
        },
        {
          "name": "weights_248.bin",
          "shape": [
            960
          ],
          "dtype": "float32"
        },
        {
          "name": "weights_249.bin",
          "shape": [
            960
          ],
          "dtype": "float32"
        },
        {
          "name": "weights_250.bin",
          "shape": [
            1,
            1,
            960,
            320
          ],
          "dtype": "float32"
        },
        {
          "name": "weights_251.bin",
          "shape": [
            320
          ],
          "dtype": "float32"
        },
        {
          "name": "weights_252.bin",
          "shape": [
            320
          ],
          "dtype": "float32"
        },
        {
          "name": "weights_253.bin",
          "shape": [
            320
          ],
          "dtype": "float32"
        },
        {
          "name": "weights_254.bin",
          "shape": [
            320
          ],
          "dtype": "float32"
        },
        {
          "name": "weights_255.bin",
          "shape": [
            1,
            1,
            320,
            1280
          ],
          "dtype": "float32"
        },
        {
          "name": "weights_256.bin",
          "shape": [
            1280
          ],
          "dtype": "float32"
        },
        {
          "name": "weights_257.bin",
          "shape": [
            1280
          ],
          "dtype": "float32"
        },
        {
          "name": "weights_258.bin",
          "shape": [
            1280
          ],
          "dtype": "float32"
        },
        {
          "name": "weights_259.bin",
          "shape": [
            1280
          ],
          "dtype": "float32"
        },
        {
          "name": "weights_260.bin",
          "shape": [
            1280,
            512
          ],
          "dtype": "float32"
        },
        {
          "name": "weights_261.bin",
          "shape": [
            512
          ],
          "dtype": "float32"
        },
        {
          "name": "weights_262.bin",
          "shape": [
            512,
            151
          ],
          "dtype": "float32"
        },
        {
          "name": "weights_263.bin",
          "shape": [
            151
          ],
          "dtype": "float32"
        }
      ]
    }
  ]
}