{
  "modelTopology": {
    "class_name": "Functional",
    "config": {
      "name": "sequential",
      "trainable": true,
      "dtype": {
        "module": "keras",
        "class_name": "DTypePolicy",
        "config": {
          "name": "float32"
        },
        "registered_name": null
      },
      "layers": [
        {
          "module": "keras.layers",
          "class_name": "InputLayer",
          "config": {
            "batchInputShape": [
              null,
              224,
              224,
              3
            ],
            "dtype": "float32",
            "sparse": false,
            "ragged": false,
            "name": "input_layer_1",
            "optional": false
          },
          "registered_name": null
        },
        {
          "module": "keras.src.models.functional",
          "class_name": "Functional",
          "config": {
            "name": "mobilenetv2_1.00_224",
            "trainable": false,
            "layers": [
              {
                "module": "keras.layers",
                "class_name": "InputLayer",
                "config": {
                  "batchInputShape": [
                    null,
                    224,
                    224,
                    3
                  ],
                  "dtype": "float32",
                  "sparse": false,
                  "ragged": false,
                  "name": "input_layer",
                  "optional": false
                },
                "registered_name": null,
                "name": "input_layer",
                "inbound_nodes": []
              },
              {
                "module": "keras.layers",
                "class_name": "Conv2D",
                "config": {
                  "name": "Conv1",
                  "trainable": false,
                  "dtype": {
                    "module": "keras",
                    "class_name": "DTypePolicy",
                    "config": {
                      "name": "float32"
                    },
                    "registered_name": null
                  },
                  "filters": 32,
                  "kernel_size": [
                    3,
                    3
                  ],
                  "strides": [
                    2,
                    2
                  ],
                  "padding": "same",
                  "data_format": "channels_last",
                  "dilation_rate": [
                    1,
                    1
                  ],
                  "groups": 1,
                  "activation": "linear",
                  "use_bias": false,
                  "kernel_initializer": {
                    "module": "keras.initializers",
                    "class_name": "GlorotUniform",
                    "config": {
                      "seed": null
                    },
                    "registered_name": null
                  },
                  "bias_initializer": {
                    "module": "keras.initializers",
                    "class_name": "Zeros",
                    "config": {},
                    "registered_name": null
                  },
                  "kernel_regularizer": null,
                  "bias_regularizer": null,
                  "activity_regularizer": null,
                  "kernel_constraint": null,
                  "bias_constraint": null
                },
                "registered_name": null,
                "build_config": {
                  "input_shape": [
                    null,
                    224,
                    224,
                    3
                  ]
                },
                "name": "Conv1",
                "inbound_nodes": [
                  {
                    "args": [
                      {
                        "class_name": "__keras_tensor__",
                        "config": {
                          "shape": [
                            null,
                            224,
                            224,
                            3
                          ],
                          "dtype": "float32",
                          "keras_history": [
                            "input_layer",
                            0,
                            0
                          ]
                        }
                      }
                    ],
                    "kwargs": {}
                  }
                ]
              },
              {
                "module": "keras.layers",
                "class_name": "BatchNormalization",
                "config": {
                  "name": "bn_Conv1",
                  "trainable": false,
                  "dtype": {
                    "module": "keras",
                    "class_name": "DTypePolicy",
                    "config": {
                      "name": "float32"
                    },
                    "registered_name": null
                  },
                  "axis": -1,
                  "momentum": 0.999,
                  "epsilon": 0.001,
                  "center": true,
                  "scale": true,
                  "beta_initializer": {
                    "module": "keras.initializers",
                    "class_name": "Zeros",
                    "config": {},
                    "registered_name": null
                  },
                  "gamma_initializer": {
                    "module": "keras.initializers",
                    "class_name": "Ones",
                    "config": {},
                    "registered_name": null
                  },
                  "moving_mean_initializer": {
                    "module": "keras.initializers",
                    "class_name": "Zeros",
                    "config": {},
                    "registered_name": null
                  },
                  "moving_variance_initializer": {
                    "module": "keras.initializers",
                    "class_name": "Ones",
                    "config": {},
                    "registered_name": null
                  },
                  "beta_regularizer": null,
                  "gamma_regularizer": null,
                  "beta_constraint": null,
                  "gamma_constraint": null,
                  "synchronized": false,
                  "renorm": false,
                  "renorm_clipping": null,
                  "renorm_momentum": 0.99
                },
                "registered_name": null,
                "build_config": {
                  "input_shape": [
                    null,
                    112,
                    112,
                    32
                  ]
                },
                "name": "bn_Conv1",
                "inbound_nodes": [
                  {
                    "args": [
                      {
                        "class_name": "__keras_tensor__",
                        "config": {
                          "shape": [
                            null,
                            112,
                            112,
                            32
                          ],
                          "dtype": "float32",
                          "keras_history": [
                            "Conv1",
                            0,
                            0
                          ]
                        }
                      }
                    ],
                    "kwargs": {
                      "mask": null
                    }
                  }
                ]
              },
              {
                "module": "keras.layers",
                "class_name": "ReLU",
                "config": {
                  "name": "Conv1_relu",
                  "trainable": false,
                  "dtype": {
                    "module": "keras",
                    "class_name": "DTypePolicy",
                    "config": {
                      "name": "float32"
                    },
                    "registered_name": null
                  },
                  "max_value": 6.0,
                  "negative_slope": 0.0,
                  "threshold": 0.0
                },
                "registered_name": null,
                "name": "Conv1_relu",
                "inbound_nodes": [
                  {
                    "args": [
                      {
                        "class_name": "__keras_tensor__",
                        "config": {
                          "shape": [
                            null,
                            112,
                            112,
                            32
                          ],
                          "dtype": "float32",
                          "keras_history": [
                            "bn_Conv1",
                            0,
                            0
                          ]
                        }
                      }
                    ],
                    "kwargs": {}
                  }
                ]
              },
              {
                "module": "keras.layers",
                "class_name": "DepthwiseConv2D",
                "config": {
                  "name": "expanded_conv_depthwise",
                  "trainable": false,
                  "dtype": {
                    "module": "keras",
                    "class_name": "DTypePolicy",
                    "config": {
                      "name": "float32"
                    },
                    "registered_name": null
                  },
                  "depth_multiplier": 1,
                  "kernel_size": [
                    3,
                    3
                  ],
                  "strides": [
                    1,
                    1
                  ],
                  "padding": "same",
                  "data_format": "channels_last",
                  "dilation_rate": [
                    1,
                    1
                  ],
                  "activation": "linear",
                  "use_bias": false,
                  "depthwise_initializer": {
                    "module": "keras.initializers",
                    "class_name": "GlorotUniform",
                    "config": {
                      "seed": null
                    },
                    "registered_name": null
                  },
                  "bias_initializer": {
                    "module": "keras.initializers",
                    "class_name": "Zeros",
                    "config": {},
                    "registered_name": null
                  },
                  "depthwise_regularizer": null,
                  "bias_regularizer": null,
                  "activity_regularizer": null,
                  "depthwise_constraint": null,
                  "bias_constraint": null
                },
                "registered_name": null,
                "build_config": {
                  "input_shape": [
                    null,
                    112,
                    112,
                    32
                  ]
                },
                "name": "expanded_conv_depthwise",
                "inbound_nodes": [
                  {
                    "args": [
                      {
                        "class_name": "__keras_tensor__",
                        "config": {
                          "shape": [
                            null,
                            112,
                            112,
                            32
                          ],
                          "dtype": "float32",
                          "keras_history": [
                            "Conv1_relu",
                            0,
                            0
                          ]
                        }
                      }
                    ],
                    "kwargs": {}
                  }
                ]
              },
              {
                "module": "keras.layers",
                "class_name": "BatchNormalization",
                "config": {
                  "name": "expanded_conv_depthwise_BN",
                  "trainable": false,
                  "dtype": {
                    "module": "keras",
                    "class_name": "DTypePolicy",
                    "config": {
                      "name": "float32"
                    },
                    "registered_name": null
                  },
                  "axis": -1,
                  "momentum": 0.999,
                  "epsilon": 0.001,
                  "center": true,
                  "scale": true,
                  "beta_initializer": {
                    "module": "keras.initializers",
                    "class_name": "Zeros",
                    "config": {},
                    "registered_name": null
                  },
                  "gamma_initializer": {
                    "module": "keras.initializers",
                    "class_name": "Ones",
                    "config": {},
                    "registered_name": null
                  },
                  "moving_mean_initializer": {
                    "module": "keras.initializers",
                    "class_name": "Zeros",
                    "config": {},
                    "registered_name": null
                  },
                  "moving_variance_initializer": {
                    "module": "keras.initializers",
                    "class_name": "Ones",
                    "config": {},
                    "registered_name": null
                  },
                  "beta_regularizer": null,
                  "gamma_regularizer": null,
                  "beta_constraint": null,
                  "gamma_constraint": null,
                  "synchronized": false,
                  "renorm": false,
                  "renorm_clipping": null,
                  "renorm_momentum": 0.99
                },
                "registered_name": null,
                "build_config": {
                  "input_shape": [
                    null,
                    112,
                    112,
                    32
                  ]
                },
                "name": "expanded_conv_depthwise_BN",
                "inbound_nodes": [
                  {
                    "args": [
                      {
                        "class_name": "__keras_tensor__",
                        "config": {
                          "shape": [
                            null,
                            112,
                            112,
                            32
                          ],
                          "dtype": "float32",
                          "keras_history": [
                            "expanded_conv_depthwise",
                            0,
                            0
                          ]
                        }
                      }
                    ],
                    "kwargs": {
                      "mask": null
                    }
                  }
                ]
              },
              {
                "module": "keras.layers",
                "class_name": "ReLU",
                "config": {
                  "name": "expanded_conv_depthwise_relu",
                  "trainable": false,
                  "dtype": {
                    "module": "keras",
                    "class_name": "DTypePolicy",
                    "config": {
                      "name": "float32"
                    },
                    "registered_name": null
                  },
                  "max_value": 6.0,
                  "negative_slope": 0.0,
                  "threshold": 0.0
                },
                "registered_name": null,
                "name": "expanded_conv_depthwise_relu",
                "inbound_nodes": [
                  {
                    "args": [
                      {
                        "class_name": "__keras_tensor__",
                        "config": {
                          "shape": [
                            null,
                            112,
                            112,
                            32
                          ],
                          "dtype": "float32",
                          "keras_history": [
                            "expanded_conv_depthwise_BN",
                            0,
                            0
                          ]
                        }
                      }
                    ],
                    "kwargs": {}
                  }
                ]
              },
              {
                "module": "keras.layers",
                "class_name": "Conv2D",
                "config": {
                  "name": "expanded_conv_project",
                  "trainable": false,
                  "dtype": {
                    "module": "keras",
                    "class_name": "DTypePolicy",
                    "config": {
                      "name": "float32"
                    },
                    "registered_name": null
                  },
                  "filters": 16,
                  "kernel_size": [
                    1,
                    1
                  ],
                  "strides": [
                    1,
                    1
                  ],
                  "padding": "same",
                  "data_format": "channels_last",
                  "dilation_rate": [
                    1,
                    1
                  ],
                  "groups": 1,
                  "activation": "linear",
                  "use_bias": false,
                  "kernel_initializer": {
                    "module": "keras.initializers",
                    "class_name": "GlorotUniform",
                    "config": {
                      "seed": null
                    },
                    "registered_name": null
                  },
                  "bias_initializer": {
                    "module": "keras.initializers",
                    "class_name": "Zeros",
                    "config": {},
                    "registered_name": null
                  },
                  "kernel_regularizer": null,
                  "bias_regularizer": null,
                  "activity_regularizer": null,
                  "kernel_constraint": null,
                  "bias_constraint": null
                },
                "registered_name": null,
                "build_config": {
                  "input_shape": [
                    null,
                    112,
                    112,
                    32
                  ]
                },
                "name": "expanded_conv_project",
                "inbound_nodes": [
                  {
                    "args": [
                      {
                        "class_name": "__keras_tensor__",
                        "config": {
                          "shape": [
                            null,
                            112,
                            112,
                            32
                          ],
                          "dtype": "float32",
                          "keras_history": [
                            "expanded_conv_depthwise_relu",
                            0,
                            0
                          ]
                        }
                      }
                    ],
                    "kwargs": {}
                  }
                ]
              },
              {
                "module": "keras.layers",
                "class_name": "BatchNormalization",
                "config": {
                  "name": "expanded_conv_project_BN",
                  "trainable": false,
                  "dtype": {
                    "module": "keras",
                    "class_name": "DTypePolicy",
                    "config": {
                      "name": "float32"
                    },
                    "registered_name": null
                  },
                  "axis": -1,
                  "momentum": 0.999,
                  "epsilon": 0.001,
                  "center": true,
                  "scale": true,
                  "beta_initializer": {
                    "module": "keras.initializers",
                    "class_name": "Zeros",
                    "config": {},
                    "registered_name": null
                  },
                  "gamma_initializer": {
                    "module": "keras.initializers",
                    "class_name": "Ones",
                    "config": {},
                    "registered_name": null
                  },
                  "moving_mean_initializer": {
                    "module": "keras.initializers",
                    "class_name": "Zeros",
                    "config": {},
                    "registered_name": null
                  },
                  "moving_variance_initializer": {
                    "module": "keras.initializers",
                    "class_name": "Ones",
                    "config": {},
                    "registered_name": null
                  },
                  "beta_regularizer": null,
                  "gamma_regularizer": null,
                  "beta_constraint": null,
                  "gamma_constraint": null,
                  "synchronized": false,
                  "renorm": false,
                  "renorm_clipping": null,
                  "renorm_momentum": 0.99
                },
                "registered_name": null,
                "build_config": {
                  "input_shape": [
                    null,
                    112,
                    112,
                    16
                  ]
                },
                "name": "expanded_conv_project_BN",
                "inbound_nodes": [
                  {
                    "args": [
                      {
                        "class_name": "__keras_tensor__",
                        "config": {
                          "shape": [
                            null,
                            112,
                            112,
                            16
                          ],
                          "dtype": "float32",
                          "keras_history": [
                            "expanded_conv_project",
                            0,
                            0
                          ]
                        }
                      }
                    ],
                    "kwargs": {
                      "mask": null
                    }
                  }
                ]
              },
              {
                "module": "keras.layers",
                "class_name": "Conv2D",
                "config": {
                  "name": "block_1_expand",
                  "trainable": false,
                  "dtype": {
                    "module": "keras",
                    "class_name": "DTypePolicy",
                    "config": {
                      "name": "float32"
                    },
                    "registered_name": null
                  },
                  "filters": 96,
                  "kernel_size": [
                    1,
                    1
                  ],
                  "strides": [
                    1,
                    1
                  ],
                  "padding": "same",
                  "data_format": "channels_last",
                  "dilation_rate": [
                    1,
                    1
                  ],
                  "groups": 1,
                  "activation": "linear",
                  "use_bias": false,
                  "kernel_initializer": {
                    "module": "keras.initializers",
                    "class_name": "GlorotUniform",
                    "config": {
                      "seed": null
                    },
                    "registered_name": null
                  },
                  "bias_initializer": {
                    "module": "keras.initializers",
                    "class_name": "Zeros",
                    "config": {},
                    "registered_name": null
                  },
                  "kernel_regularizer": null,
                  "bias_regularizer": null,
                  "activity_regularizer": null,
                  "kernel_constraint": null,
                  "bias_constraint": null
                },
                "registered_name": null,
                "build_config": {
                  "input_shape": [
                    null,
                    112,
                    112,
                    16
                  ]
                },
                "name": "block_1_expand",
                "inbound_nodes": [
                  {
                    "args": [
                      {
                        "class_name": "__keras_tensor__",
                        "config": {
                          "shape": [
                            null,
                            112,
                            112,
                            16
                          ],
                          "dtype": "float32",
                          "keras_history": [
                            "expanded_conv_project_BN",
                            0,
                            0
                          ]
                        }
                      }
                    ],
                    "kwargs": {}
                  }
                ]
              },
              {
                "module": "keras.layers",
                "class_name": "BatchNormalization",
                "config": {
                  "name": "block_1_expand_BN",
                  "trainable": false,
                  "dtype": {
                    "module": "keras",
                    "class_name": "DTypePolicy",
                    "config": {
                      "name": "float32"
                    },
                    "registered_name": null
                  },
                  "axis": -1,
                  "momentum": 0.999,
                  "epsilon": 0.001,
                  "center": true,
                  "scale": true,
                  "beta_initializer": {
                    "module": "keras.initializers",
                    "class_name": "Zeros",
                    "config": {},
                    "registered_name": null
                  },
                  "gamma_initializer": {
                    "module": "keras.initializers",
                    "class_name": "Ones",
                    "config": {},
                    "registered_name": null
                  },
                  "moving_mean_initializer": {
                    "module": "keras.initializers",
                    "class_name": "Zeros",
                    "config": {},
                    "registered_name": null
                  },
                  "moving_variance_initializer": {
                    "module": "keras.initializers",
                    "class_name": "Ones",
                    "config": {},
                    "registered_name": null
                  },
                  "beta_regularizer": null,
                  "gamma_regularizer": null,
                  "beta_constraint": null,
                  "gamma_constraint": null,
                  "synchronized": false,
                  "renorm": false,
                  "renorm_clipping": null,
                  "renorm_momentum": 0.99
                },
                "registered_name": null,
                "build_config": {
                  "input_shape": [
                    null,
                    112,
                    112,
                    96
                  ]
                },
                "name": "block_1_expand_BN",
                "inbound_nodes": [
                  {
                    "args": [
                      {
                        "class_name": "__keras_tensor__",
                        "config": {
                          "shape": [
                            null,
                            112,
                            112,
                            96
                          ],
                          "dtype": "float32",
                          "keras_history": [
                            "block_1_expand",
                            0,
                            0
                          ]
                        }
                      }
                    ],
                    "kwargs": {
                      "mask": null
                    }
                  }
                ]
              },
              {
                "module": "keras.layers",
                "class_name": "ReLU",
                "config": {
                  "name": "block_1_expand_relu",
                  "trainable": false,
                  "dtype": {
                    "module": "keras",
                    "class_name": "DTypePolicy",
                    "config": {
                      "name": "float32"
                    },
                    "registered_name": null
                  },
                  "max_value": 6.0,
                  "negative_slope": 0.0,
                  "threshold": 0.0
                },
                "registered_name": null,
                "name": "block_1_expand_relu",
                "inbound_nodes": [
                  {
                    "args": [
                      {
                        "class_name": "__keras_tensor__",
                        "config": {
                          "shape": [
                            null,
                            112,
                            112,
                            96
                          ],
                          "dtype": "float32",
                          "keras_history": [
                            "block_1_expand_BN",
                            0,
                            0
                          ]
                        }
                      }
                    ],
                    "kwargs": {}
                  }
                ]
              },
              {
                "module": "keras.layers",
                "class_name": "ZeroPadding2D",
                "config": {
                  "name": "block_1_pad",
                  "trainable": false,
                  "dtype": {
                    "module": "keras",
                    "class_name": "DTypePolicy",
                    "config": {
                      "name": "float32"
                    },
                    "registered_name": null
                  },
                  "padding": [
                    [
                      0,
                      1
                    ],
                    [
                      0,
                      1
                    ]
                  ],
                  "data_format": "channels_last"
                },
                "registered_name": null,
                "build_config": {
                  "input_shape": [
                    null,
                    112,
                    112,
                    96
                  ]
                },
                "name": "block_1_pad",
                "inbound_nodes": [
                  {
                    "args": [
                      {
                        "class_name": "__keras_tensor__",
                        "config": {
                          "shape": [
                            null,
                            112,
                            112,
                            96
                          ],
                          "dtype": "float32",
                          "keras_history": [
                            "block_1_expand_relu",
                            0,
                            0
                          ]
                        }
                      }
                    ],
                    "kwargs": {}
                  }
                ]
              },
              {
                "module": "keras.layers",
                "class_name": "DepthwiseConv2D",
                "config": {
                  "name": "block_1_depthwise",
                  "trainable": false,
                  "dtype": {
                    "module": "keras",
                    "class_name": "DTypePolicy",
                    "config": {
                      "name": "float32"
                    },
                    "registered_name": null
                  },
                  "depth_multiplier": 1,
                  "kernel_size": [
                    3,
                    3
                  ],
                  "strides": [
                    2,
                    2
                  ],
                  "padding": "valid",
                  "data_format": "channels_last",
                  "dilation_rate": [
                    1,
                    1
                  ],
                  "activation": "linear",
                  "use_bias": false,
                  "depthwise_initializer": {
                    "module": "keras.initializers",
                    "class_name": "GlorotUniform",
                    "config": {
                      "seed": null
                    },
                    "registered_name": null
                  },
                  "bias_initializer": {
                    "module": "keras.initializers",
                    "class_name": "Zeros",
                    "config": {},
                    "registered_name": null
                  },
                  "depthwise_regularizer": null,
                  "bias_regularizer": null,
                  "activity_regularizer": null,
                  "depthwise_constraint": null,
                  "bias_constraint": null
                },
                "registered_name": null,
                "build_config": {
                  "input_shape": [
                    null,
                    113,
                    113,
                    96
                  ]
                },
                "name": "block_1_depthwise",
                "inbound_nodes": [
                  {
                    "args": [
                      {
                        "class_name": "__keras_tensor__",
                        "config": {
                          "shape": [
                            null,
                            113,
                            113,
                            96
                          ],
                          "dtype": "float32",
                          "keras_history": [
                            "block_1_pad",
                            0,
                            0
                          ]
                        }
                      }
                    ],
                    "kwargs": {}
                  }
                ]
              },
              {
                "module": "keras.layers",
                "class_name": "BatchNormalization",
                "config": {
                  "name": "block_1_depthwise_BN",
                  "trainable": false,
                  "dtype": {
                    "module": "keras",
                    "class_name": "DTypePolicy",
                    "config": {
                      "name": "float32"
                    },
                    "registered_name": null
                  },
                  "axis": -1,
                  "momentum": 0.999,
                  "epsilon": 0.001,
                  "center": true,
                  "scale": true,
                  "beta_initializer": {
                    "module": "keras.initializers",
                    "class_name": "Zeros",
                    "config": {},
                    "registered_name": null
                  },
                  "gamma_initializer": {
                    "module": "keras.initializers",
                    "class_name": "Ones",
                    "config": {},
                    "registered_name": null
                  },
                  "moving_mean_initializer": {
                    "module": "keras.initializers",
                    "class_name": "Zeros",
                    "config": {},
                    "registered_name": null
                  },
                  "moving_variance_initializer": {
                    "module": "keras.initializers",
                    "class_name": "Ones",
                    "config": {},
                    "registered_name": null
                  },
                  "beta_regularizer": null,
                  "gamma_regularizer": null,
                  "beta_constraint": null,
                  "gamma_constraint": null,
                  "synchronized": false,
                  "renorm": false,
                  "renorm_clipping": null,
                  "renorm_momentum": 0.99
                },
                "registered_name": null,
                "build_config": {
                  "input_shape": [
                    null,
                    56,
                    56,
                    96
                  ]
                },
                "name": "block_1_depthwise_BN",
                "inbound_nodes": [
                  {
                    "args": [
                      {
                        "class_name": "__keras_tensor__",
                        "config": {
                          "shape": [
                            null,
                            56,
                            56,
                            96
                          ],
                          "dtype": "float32",
                          "keras_history": [
                            "block_1_depthwise",
                            0,
                            0
                          ]
                        }
                      }
                    ],
                    "kwargs": {
                      "mask": null
                    }
                  }
                ]
              },
              {
                "module": "keras.layers",
                "class_name": "ReLU",
                "config": {
                  "name": "block_1_depthwise_relu",
                  "trainable": false,
                  "dtype": {
                    "module": "keras",
                    "class_name": "DTypePolicy",
                    "config": {
                      "name": "float32"
                    },
                    "registered_name": null
                  },
                  "max_value": 6.0,
                  "negative_slope": 0.0,
                  "threshold": 0.0
                },
                "registered_name": null,
                "name": "block_1_depthwise_relu",
                "inbound_nodes": [
                  {
                    "args": [
                      {
                        "class_name": "__keras_tensor__",
                        "config": {
                          "shape": [
                            null,
                            56,
                            56,
                            96
                          ],
                          "dtype": "float32",
                          "keras_history": [
                            "block_1_depthwise_BN",
                            0,
                            0
                          ]
                        }
                      }
                    ],
                    "kwargs": {}
                  }
                ]
              },
              {
                "module": "keras.layers",
                "class_name": "Conv2D",
                "config": {
                  "name": "block_1_project",
                  "trainable": false,
                  "dtype": {
                    "module": "keras",
                    "class_name": "DTypePolicy",
                    "config": {
                      "name": "float32"
                    },
                    "registered_name": null
                  },
                  "filters": 24,
                  "kernel_size": [
                    1,
                    1
                  ],
                  "strides": [
                    1,
                    1
                  ],
                  "padding": "same",
                  "data_format": "channels_last",
                  "dilation_rate": [
                    1,
                    1
                  ],
                  "groups": 1,
                  "activation": "linear",
                  "use_bias": false,
                  "kernel_initializer": {
                    "module": "keras.initializers",
                    "class_name": "GlorotUniform",
                    "config": {
                      "seed": null
                    },
                    "registered_name": null
                  },
                  "bias_initializer": {
                    "module": "keras.initializers",
                    "class_name": "Zeros",
                    "config": {},
                    "registered_name": null
                  },
                  "kernel_regularizer": null,
                  "bias_regularizer": null,
                  "activity_regularizer": null,
                  "kernel_constraint": null,
                  "bias_constraint": null
                },
                "registered_name": null,
                "build_config": {
                  "input_shape": [
                    null,
                    56,
                    56,
                    96
                  ]
                },
                "name": "block_1_project",
                "inbound_nodes": [
                  {
                    "args": [
                      {
                        "class_name": "__keras_tensor__",
                        "config": {
                          "shape": [
                            null,
                            56,
                            56,
                            96
                          ],
                          "dtype": "float32",
                          "keras_history": [
                            "block_1_depthwise_relu",
                            0,
                            0
                          ]
                        }
                      }
                    ],
                    "kwargs": {}
                  }
                ]
              },
              {
                "module": "keras.layers",
                "class_name": "BatchNormalization",
                "config": {
                  "name": "block_1_project_BN",
                  "trainable": false,
                  "dtype": {
                    "module": "keras",
                    "class_name": "DTypePolicy",
                    "config": {
                      "name": "float32"
                    },
                    "registered_name": null
                  },
                  "axis": -1,
                  "momentum": 0.999,
                  "epsilon": 0.001,
                  "center": true,
                  "scale": true,
                  "beta_initializer": {
                    "module": "keras.initializers",
                    "class_name": "Zeros",
                    "config": {},
                    "registered_name": null
                  },
                  "gamma_initializer": {
                    "module": "keras.initializers",
                    "class_name": "Ones",
                    "config": {},
                    "registered_name": null
                  },
                  "moving_mean_initializer": {
                    "module": "keras.initializers",
                    "class_name": "Zeros",
                    "config": {},
                    "registered_name": null
                  },
                  "moving_variance_initializer": {
                    "module": "keras.initializers",
                    "class_name": "Ones",
                    "config": {},
                    "registered_name": null
                  },
                  "beta_regularizer": null,
                  "gamma_regularizer": null,
                  "beta_constraint": null,
                  "gamma_constraint": null,
                  "synchronized": false,
                  "renorm": false,
                  "renorm_clipping": null,
                  "renorm_momentum": 0.99
                },
                "registered_name": null,
                "build_config": {
                  "input_shape": [
                    null,
                    56,
                    56,
                    24
                  ]
                },
                "name": "block_1_project_BN",
                "inbound_nodes": [
                  {
                    "args": [
                      {
                        "class_name": "__keras_tensor__",
                        "config": {
                          "shape": [
                            null,
                            56,
                            56,
                            24
                          ],
                          "dtype": "float32",
                          "keras_history": [
                            "block_1_project",
                            0,
                            0
                          ]
                        }
                      }
                    ],
                    "kwargs": {
                      "mask": null
                    }
                  }
                ]
              },
              {
                "module": "keras.layers",
                "class_name": "Conv2D",
                "config": {
                  "name": "block_2_expand",
                  "trainable": false,
                  "dtype": {
                    "module": "keras",
                    "class_name": "DTypePolicy",
                    "config": {
                      "name": "float32"
                    },
                    "registered_name": null
                  },
                  "filters": 144,
                  "kernel_size": [
                    1,
                    1
                  ],
                  "strides": [
                    1,
                    1
                  ],
                  "padding": "same",
                  "data_format": "channels_last",
                  "dilation_rate": [
                    1,
                    1
                  ],
                  "groups": 1,
                  "activation": "linear",
                  "use_bias": false,
                  "kernel_initializer": {
                    "module": "keras.initializers",
                    "class_name": "GlorotUniform",
                    "config": {
                      "seed": null
                    },
                    "registered_name": null
                  },
                  "bias_initializer": {
                    "module": "keras.initializers",
                    "class_name": "Zeros",
                    "config": {},
                    "registered_name": null
                  },
                  "kernel_regularizer": null,
                  "bias_regularizer": null,
                  "activity_regularizer": null,
                  "kernel_constraint": null,
                  "bias_constraint": null
                },
                "registered_name": null,
                "build_config": {
                  "input_shape": [
                    null,
                    56,
                    56,
                    24
                  ]
                },
                "name": "block_2_expand",
                "inbound_nodes": [
                  {
                    "args": [
                      {
                        "class_name": "__keras_tensor__",
                        "config": {
                          "shape": [
                            null,
                            56,
                            56,
                            24
                          ],
                          "dtype": "float32",
                          "keras_history": [
                            "block_1_project_BN",
                            0,
                            0
                          ]
                        }
                      }
                    ],
                    "kwargs": {}
                  }
                ]
              },
              {
                "module": "keras.layers",
                "class_name": "BatchNormalization",
                "config": {
                  "name": "block_2_expand_BN",
                  "trainable": false,
                  "dtype": {
                    "module": "keras",
                    "class_name": "DTypePolicy",
                    "config": {
                      "name": "float32"
                    },
                    "registered_name": null
                  },
                  "axis": -1,
                  "momentum": 0.999,
                  "epsilon": 0.001,
                  "center": true,
                  "scale": true,
                  "beta_initializer": {
                    "module": "keras.initializers",
                    "class_name": "Zeros",
                    "config": {},
                    "registered_name": null
                  },
                  "gamma_initializer": {
                    "module": "keras.initializers",
                    "class_name": "Ones",
                    "config": {},
                    "registered_name": null
                  },
                  "moving_mean_initializer": {
                    "module": "keras.initializers",
                    "class_name": "Zeros",
                    "config": {},
                    "registered_name": null
                  },
                  "moving_variance_initializer": {
                    "module": "keras.initializers",
                    "class_name": "Ones",
                    "config": {},
                    "registered_name": null
                  },
                  "beta_regularizer": null,
                  "gamma_regularizer": null,
                  "beta_constraint": null,
                  "gamma_constraint": null,
                  "synchronized": false,
                  "renorm": false,
                  "renorm_clipping": null,
                  "renorm_momentum": 0.99
                },
                "registered_name": null,
                "build_config": {
                  "input_shape": [
                    null,
                    56,
                    56,
                    144
                  ]
                },
                "name": "block_2_expand_BN",
                "inbound_nodes": [
                  {
                    "args": [
                      {
                        "class_name": "__keras_tensor__",
                        "config": {
                          "shape": [
                            null,
                            56,
                            56,
                            144
                          ],
                          "dtype": "float32",
                          "keras_history": [
                            "block_2_expand",
                            0,
                            0
                          ]
                        }
                      }
                    ],
                    "kwargs": {
                      "mask": null
                    }
                  }
                ]
              },
              {
                "module": "keras.layers",
                "class_name": "ReLU",
                "config": {
                  "name": "block_2_expand_relu",
                  "trainable": false,
                  "dtype": {
                    "module": "keras",
                    "class_name": "DTypePolicy",
                    "config": {
                      "name": "float32"
                    },
                    "registered_name": null
                  },
                  "max_value": 6.0,
                  "negative_slope": 0.0,
                  "threshold": 0.0
                },
                "registered_name": null,
                "name": "block_2_expand_relu",
                "inbound_nodes": [
                  {
                    "args": [
                      {
                        "class_name": "__keras_tensor__",
                        "config": {
                          "shape": [
                            null,
                            56,
                            56,
                            144
                          ],
                          "dtype": "float32",
                          "keras_history": [
                            "block_2_expand_BN",
                            0,
                            0
                          ]
                        }
                      }
                    ],
                    "kwargs": {}
                  }
                ]
              },
              {
                "module": "keras.layers",
                "class_name": "DepthwiseConv2D",
                "config": {
                  "name": "block_2_depthwise",
                  "trainable": false,
                  "dtype": {
                    "module": "keras",
                    "class_name": "DTypePolicy",
                    "config": {
                      "name": "float32"
                    },
                    "registered_name": null
                  },
                  "depth_multiplier": 1,
                  "kernel_size": [
                    3,
                    3
                  ],
                  "strides": [
                    1,
                    1
                  ],
                  "padding": "same",
                  "data_format": "channels_last",
                  "dilation_rate": [
                    1,
                    1
                  ],
                  "activation": "linear",
                  "use_bias": false,
                  "depthwise_initializer": {
                    "module": "keras.initializers",
                    "class_name": "GlorotUniform",
                    "config": {
                      "seed": null
                    },
                    "registered_name": null
                  },
                  "bias_initializer": {
                    "module": "keras.initializers",
                    "class_name": "Zeros",
                    "config": {},
                    "registered_name": null
                  },
                  "depthwise_regularizer": null,
                  "bias_regularizer": null,
                  "activity_regularizer": null,
                  "depthwise_constraint": null,
                  "bias_constraint": null
                },
                "registered_name": null,
                "build_config": {
                  "input_shape": [
                    null,
                    56,
                    56,
                    144
                  ]
                },
                "name": "block_2_depthwise",
                "inbound_nodes": [
                  {
                    "args": [
                      {
                        "class_name": "__keras_tensor__",
                        "config": {
                          "shape": [
                            null,
                            56,
                            56,
                            144
                          ],
                          "dtype": "float32",
                          "keras_history": [
                            "block_2_expand_relu",
                            0,
                            0
                          ]
                        }
                      }
                    ],
                    "kwargs": {}
                  }
                ]
              },
              {
                "module": "keras.layers",
                "class_name": "BatchNormalization",
                "config": {
                  "name": "block_2_depthwise_BN",
                  "trainable": false,
                  "dtype": {
                    "module": "keras",
                    "class_name": "DTypePolicy",
                    "config": {
                      "name": "float32"
                    },
                    "registered_name": null
                  },
                  "axis": -1,
                  "momentum": 0.999,
                  "epsilon": 0.001,
                  "center": true,
                  "scale": true,
                  "beta_initializer": {
                    "module": "keras.initializers",
                    "class_name": "Zeros",
                    "config": {},
                    "registered_name": null
                  },
                  "gamma_initializer": {
                    "module": "keras.initializers",
                    "class_name": "Ones",
                    "config": {},
                    "registered_name": null
                  },
                  "moving_mean_initializer": {
                    "module": "keras.initializers",
                    "class_name": "Zeros",
                    "config": {},
                    "registered_name": null
                  },
                  "moving_variance_initializer": {
                    "module": "keras.initializers",
                    "class_name": "Ones",
                    "config": {},
                    "registered_name": null
                  },
                  "beta_regularizer": null,
                  "gamma_regularizer": null,
                  "beta_constraint": null,
                  "gamma_constraint": null,
                  "synchronized": false,
                  "renorm": false,
                  "renorm_clipping": null,
                  "renorm_momentum": 0.99
                },
                "registered_name": null,
                "build_config": {
                  "input_shape": [
                    null,
                    56,
                    56,
                    144
                  ]
                },
                "name": "block_2_depthwise_BN",
                "inbound_nodes": [
                  {
                    "args": [
                      {
                        "class_name": "__keras_tensor__",
                        "config": {
                          "shape": [
                            null,
                            56,
                            56,
                            144
                          ],
                          "dtype": "float32",
                          "keras_history": [
                            "block_2_depthwise",
                            0,
                            0
                          ]
                        }
                      }
                    ],
                    "kwargs": {
                      "mask": null
                    }
                  }
                ]
              },
              {
                "module": "keras.layers",
                "class_name": "ReLU",
                "config": {
                  "name": "block_2_depthwise_relu",
                  "trainable": false,
                  "dtype": {
                    "module": "keras",
                    "class_name": "DTypePolicy",
                    "config": {
                      "name": "float32"
                    },
                    "registered_name": null
                  },
                  "max_value": 6.0,
                  "negative_slope": 0.0,
                  "threshold": 0.0
                },
                "registered_name": null,
                "name": "block_2_depthwise_relu",
                "inbound_nodes": [
                  {
                    "args": [
                      {
                        "class_name": "__keras_tensor__",
                        "config": {
                          "shape": [
                            null,
                            56,
                            56,
                            144
                          ],
                          "dtype": "float32",
                          "keras_history": [
                            "block_2_depthwise_BN",
                            0,
                            0
                          ]
                        }
                      }
                    ],
                    "kwargs": {}
                  }
                ]
              },
              {
                "module": "keras.layers",
                "class_name": "Conv2D",
                "config": {
                  "name": "block_2_project",
                  "trainable": false,
                  "dtype": {
                    "module": "keras",
                    "class_name": "DTypePolicy",
                    "config": {
                      "name": "float32"
                    },
                    "registered_name": null
                  },
                  "filters": 24,
                  "kernel_size": [
                    1,
                    1
                  ],
                  "strides": [
                    1,
                    1
                  ],
                  "padding": "same",
                  "data_format": "channels_last",
                  "dilation_rate": [
                    1,
                    1
                  ],
                  "groups": 1,
                  "activation": "linear",
                  "use_bias": false,
                  "kernel_initializer": {
                    "module": "keras.initializers",
                    "class_name": "GlorotUniform",
                    "config": {
                      "seed": null
                    },
                    "registered_name": null
                  },
                  "bias_initializer": {
                    "module": "keras.initializers",
                    "class_name": "Zeros",
                    "config": {},
                    "registered_name": null
                  },
                  "kernel_regularizer": null,
                  "bias_regularizer": null,
                  "activity_regularizer": null,
                  "kernel_constraint": null,
                  "bias_constraint": null
                },
                "registered_name": null,
                "build_config": {
                  "input_shape": [
                    null,
                    56,
                    56,
                    144
                  ]
                },
                "name": "block_2_project",
                "inbound_nodes": [
                  {
                    "args": [
                      {
                        "class_name": "__keras_tensor__",
                        "config": {
                          "shape": [
                            null,
                            56,
                            56,
                            144
                          ],
                          "dtype": "float32",
                          "keras_history": [
                            "block_2_depthwise_relu",
                            0,
                            0
                          ]
                        }
                      }
                    ],
                    "kwargs": {}
                  }
                ]
              },
              {
                "module": "keras.layers",
                "class_name": "BatchNormalization",
                "config": {
                  "name": "block_2_project_BN",
                  "trainable": false,
                  "dtype": {
                    "module": "keras",
                    "class_name": "DTypePolicy",
                    "config": {
                      "name": "float32"
                    },
                    "registered_name": null
                  },
                  "axis": -1,
                  "momentum": 0.999,
                  "epsilon": 0.001,
                  "center": true,
                  "scale": true,
                  "beta_initializer": {
                    "module": "keras.initializers",
                    "class_name": "Zeros",
                    "config": {},
                    "registered_name": null
                  },
                  "gamma_initializer": {
                    "module": "keras.initializers",
                    "class_name": "Ones",
                    "config": {},
                    "registered_name": null
                  },
                  "moving_mean_initializer": {
                    "module": "keras.initializers",
                    "class_name": "Zeros",
                    "config": {},
                    "registered_name": null
                  },
                  "moving_variance_initializer": {
                    "module": "keras.initializers",
                    "class_name": "Ones",
                    "config": {},
                    "registered_name": null
                  },
                  "beta_regularizer": null,
                  "gamma_regularizer": null,
                  "beta_constraint": null,
                  "gamma_constraint": null,
                  "synchronized": false,
                  "renorm": false,
                  "renorm_clipping": null,
                  "renorm_momentum": 0.99
                },
                "registered_name": null,
                "build_config": {
                  "input_shape": [
                    null,
                    56,
                    56,
                    24
                  ]
                },
                "name": "block_2_project_BN",
                "inbound_nodes": [
                  {
                    "args": [
                      {
                        "class_name": "__keras_tensor__",
                        "config": {
                          "shape": [
                            null,
                            56,
                            56,
                            24
                          ],
                          "dtype": "float32",
                          "keras_history": [
                            "block_2_project",
                            0,
                            0
                          ]
                        }
                      }
                    ],
                    "kwargs": {
                      "mask": null
                    }
                  }
                ]
              },
              {
                "module": "keras.layers",
                "class_name": "Add",
                "config": {
                  "name": "block_2_add",
                  "trainable": false,
                  "dtype": {
                    "module": "keras",
                    "class_name": "DTypePolicy",
                    "config": {
                      "name": "float32"
                    },
                    "registered_name": null
                  }
                },
                "registered_name": null,
                "build_config": {
                  "input_shape": [
                    [
                      null,
                      56,
                      56,
                      24
                    ],
                    [
                      null,
                      56,
                      56,
                      24
                    ]
                  ]
                },
                "name": "block_2_add",
                "inbound_nodes": [
                  {
                    "args": [
                      [
                        {
                          "class_name": "__keras_tensor__",
                          "config": {
                            "shape": [
                              null,
                              56,
                              56,
                              24
                            ],
                            "dtype": "float32",
                            "keras_history": [
                              "block_1_project_BN",
                              0,
                              0
                            ]
                          }
                        },
                        {
                          "class_name": "__keras_tensor__",
                          "config": {
                            "shape": [
                              null,
                              56,
                              56,
                              24
                            ],
                            "dtype": "float32",
                            "keras_history": [
                              "block_2_project_BN",
                              0,
                              0
                            ]
                          }
                        }
                      ]
                    ],
                    "kwargs": {}
                  }
                ]
              },
              {
                "module": "keras.layers",
                "class_name": "Conv2D",
                "config": {
                  "name": "block_3_expand",
                  "trainable": false,
                  "dtype": {
                    "module": "keras",
                    "class_name": "DTypePolicy",
                    "config": {
                      "name": "float32"
                    },
                    "registered_name": null
                  },
                  "filters": 144,
                  "kernel_size": [
                    1,
                    1
                  ],
                  "strides": [
                    1,
                    1
                  ],
                  "padding": "same",
                  "data_format": "channels_last",
                  "dilation_rate": [
                    1,
                    1
                  ],
                  "groups": 1,
                  "activation": "linear",
                  "use_bias": false,
                  "kernel_initializer": {
                    "module": "keras.initializers",
                    "class_name": "GlorotUniform",
                    "config": {
                      "seed": null
                    },
                    "registered_name": null
                  },
                  "bias_initializer": {
                    "module": "keras.initializers",
                    "class_name": "Zeros",
                    "config": {},
                    "registered_name": null
                  },
                  "kernel_regularizer": null,
                  "bias_regularizer": null,
                  "activity_regularizer": null,
                  "kernel_constraint": null,
                  "bias_constraint": null
                },
                "registered_name": null,
                "build_config": {
                  "input_shape": [
                    null,
                    56,
                    56,
                    24
                  ]
                },
                "name": "block_3_expand",
                "inbound_nodes": [
                  {
                    "args": [
                      {
                        "class_name": "__keras_tensor__",
                        "config": {
                          "shape": [
                            null,
                            56,
                            56,
                            24
                          ],
                          "dtype": "float32",
                          "keras_history": [
                            "block_2_add",
                            0,
                            0
                          ]
                        }
                      }
                    ],
                    "kwargs": {}
                  }
                ]
              },
              {
                "module": "keras.layers",
                "class_name": "BatchNormalization",
                "config": {
                  "name": "block_3_expand_BN",
                  "trainable": false,
                  "dtype": {
                    "module": "keras",
                    "class_name": "DTypePolicy",
                    "config": {
                      "name": "float32"
                    },
                    "registered_name": null
                  },
                  "axis": -1,
                  "momentum": 0.999,
                  "epsilon": 0.001,
                  "center": true,
                  "scale": true,
                  "beta_initializer": {
                    "module": "keras.initializers",
                    "class_name": "Zeros",
                    "config": {},
                    "registered_name": null
                  },
                  "gamma_initializer": {
                    "module": "keras.initializers",
                    "class_name": "Ones",
                    "config": {},
                    "registered_name": null
                  },
                  "moving_mean_initializer": {
                    "module": "keras.initializers",
                    "class_name": "Zeros",
                    "config": {},
                    "registered_name": null
                  },
                  "moving_variance_initializer": {
                    "module": "keras.initializers",
                    "class_name": "Ones",
                    "config": {},
                    "registered_name": null
                  },
                  "beta_regularizer": null,
                  "gamma_regularizer": null,
                  "beta_constraint": null,
                  "gamma_constraint": null,
                  "synchronized": false,
                  "renorm": false,
                  "renorm_clipping": null,
                  "renorm_momentum": 0.99
                },
                "registered_name": null,
                "build_config": {
                  "input_shape": [
                    null,
                    56,
                    56,
                    144
                  ]
                },
                "name": "block_3_expand_BN",
                "inbound_nodes": [
                  {
                    "args": [
                      {
                        "class_name": "__keras_tensor__",
                        "config": {
                          "shape": [
                            null,
                            56,
                            56,
                            144
                          ],
                          "dtype": "float32",
                          "keras_history": [
                            "block_3_expand",
                            0,
                            0
                          ]
                        }
                      }
                    ],
                    "kwargs": {
                      "mask": null
                    }
                  }
                ]
              },
              {
                "module": "keras.layers",
                "class_name": "ReLU",
                "config": {
                  "name": "block_3_expand_relu",
                  "trainable": false,
                  "dtype": {
                    "module": "keras",
                    "class_name": "DTypePolicy",
                    "config": {
                      "name": "float32"
                    },
                    "registered_name": null
                  },
                  "max_value": 6.0,
                  "negative_slope": 0.0,
                  "threshold": 0.0
                },
                "registered_name": null,
                "name": "block_3_expand_relu",
                "inbound_nodes": [
                  {
                    "args": [
                      {
                        "class_name": "__keras_tensor__",
                        "config": {
                          "shape": [
                            null,
                            56,
                            56,
                            144
                          ],
                          "dtype": "float32",
                          "keras_history": [
                            "block_3_expand_BN",
                            0,
                            0
                          ]
                        }
                      }
                    ],
                    "kwargs": {}
                  }
                ]
              },
              {
                "module": "keras.layers",
                "class_name": "ZeroPadding2D",
                "config": {
                  "name": "block_3_pad",
                  "trainable": false,
                  "dtype": {
                    "module": "keras",
                    "class_name": "DTypePolicy",
                    "config": {
                      "name": "float32"
                    },
                    "registered_name": null
                  },
                  "padding": [
                    [
                      0,
                      1
                    ],
                    [
                      0,
                      1
                    ]
                  ],
                  "data_format": "channels_last"
                },
                "registered_name": null,
                "build_config": {
                  "input_shape": [
                    null,
                    56,
                    56,
                    144
                  ]
                },
                "name": "block_3_pad",
                "inbound_nodes": [
                  {
                    "args": [
                      {
                        "class_name": "__keras_tensor__",
                        "config": {
                          "shape": [
                            null,
                            56,
                            56,
                            144
                          ],
                          "dtype": "float32",
                          "keras_history": [
                            "block_3_expand_relu",
                            0,
                            0
                          ]
                        }
                      }
                    ],
                    "kwargs": {}
                  }
                ]
              },
              {
                "module": "keras.layers",
                "class_name": "DepthwiseConv2D",
                "config": {
                  "name": "block_3_depthwise",
                  "trainable": false,
                  "dtype": {
                    "module": "keras",
                    "class_name": "DTypePolicy",
                    "config": {
                      "name": "float32"
                    },
                    "registered_name": null
                  },
                  "depth_multiplier": 1,
                  "kernel_size": [
                    3,
                    3
                  ],
                  "strides": [
                    2,
                    2
                  ],
                  "padding": "valid",
                  "data_format": "channels_last",
                  "dilation_rate": [
                    1,
                    1
                  ],
                  "activation": "linear",
                  "use_bias": false,
                  "depthwise_initializer": {
                    "module": "keras.initializers",
                    "class_name": "GlorotUniform",
                    "config": {
                      "seed": null
                    },
                    "registered_name": null
                  },
                  "bias_initializer": {
                    "module": "keras.initializers",
                    "class_name": "Zeros",
                    "config": {},
                    "registered_name": null
                  },
                  "depthwise_regularizer": null,
                  "bias_regularizer": null,
                  "activity_regularizer": null,
                  "depthwise_constraint": null,
                  "bias_constraint": null
                },
                "registered_name": null,
                "build_config": {
                  "input_shape": [
                    null,
                    57,
                    57,
                    144
                  ]
                },
                "name": "block_3_depthwise",
                "inbound_nodes": [
                  {
                    "args": [
                      {
                        "class_name": "__keras_tensor__",
                        "config": {
                          "shape": [
                            null,
                            57,
                            57,
                            144
                          ],
                          "dtype": "float32",
                          "keras_history": [
                            "block_3_pad",
                            0,
                            0
                          ]
                        }
                      }
                    ],
                    "kwargs": {}
                  }
                ]
              },
              {
                "module": "keras.layers",
                "class_name": "BatchNormalization",
                "config": {
                  "name": "block_3_depthwise_BN",
                  "trainable": false,
                  "dtype": {
                    "module": "keras",
                    "class_name": "DTypePolicy",
                    "config": {
                      "name": "float32"
                    },
                    "registered_name": null
                  },
                  "axis": -1,
                  "momentum": 0.999,
                  "epsilon": 0.001,
                  "center": true,
                  "scale": true,
                  "beta_initializer": {
                    "module": "keras.initializers",
                    "class_name": "Zeros",
                    "config": {},
                    "registered_name": null
                  },
                  "gamma_initializer": {
                    "module": "keras.initializers",
                    "class_name": "Ones",
                    "config": {},
                    "registered_name": null
                  },
                  "moving_mean_initializer": {
                    "module": "keras.initializers",
                    "class_name": "Zeros",
                    "config": {},
                    "registered_name": null
                  },
                  "moving_variance_initializer": {
                    "module": "keras.initializers",
                    "class_name": "Ones",
                    "config": {},
                    "registered_name": null
                  },
                  "beta_regularizer": null,
                  "gamma_regularizer": null,
                  "beta_constraint": null,
                  "gamma_constraint": null,
                  "synchronized": false,
                  "renorm": false,
                  "renorm_clipping": null,
                  "renorm_momentum": 0.99
                },
                "registered_name": null,
                "build_config": {
                  "input_shape": [
                    null,
                    28,
                    28,
                    144
                  ]
                },
                "name": "block_3_depthwise_BN",
                "inbound_nodes": [
                  {
                    "args": [
                      {
                        "class_name": "__keras_tensor__",
                        "config": {
                          "shape": [
                            null,
                            28,
                            28,
                            144
                          ],
                          "dtype": "float32",
                          "keras_history": [
                            "block_3_depthwise",
                            0,
                            0
                          ]
                        }
                      }
                    ],
                    "kwargs": {
                      "mask": null
                    }
                  }
                ]
              },
              {
                "module": "keras.layers",
                "class_name": "ReLU",
                "config": {
                  "name": "block_3_depthwise_relu",
                  "trainable": false,
                  "dtype": {
                    "module": "keras",
                    "class_name": "DTypePolicy",
                    "config": {
                      "name": "float32"
                    },
                    "registered_name": null
                  },
                  "max_value": 6.0,
                  "negative_slope": 0.0,
                  "threshold": 0.0
                },
                "registered_name": null,
                "name": "block_3_depthwise_relu",
                "inbound_nodes": [
                  {
                    "args": [
                      {
                        "class_name": "__keras_tensor__",
                        "config": {
                          "shape": [
                            null,
                            28,
                            28,
                            144
                          ],
                          "dtype": "float32",
                          "keras_history": [
                            "block_3_depthwise_BN",
                            0,
                            0
                          ]
                        }
                      }
                    ],
                    "kwargs": {}
                  }
                ]
              },
              {
                "module": "keras.layers",
                "class_name": "Conv2D",
                "config": {
                  "name": "block_3_project",
                  "trainable": false,
                  "dtype": {
                    "module": "keras",
                    "class_name": "DTypePolicy",
                    "config": {
                      "name": "float32"
                    },
                    "registered_name": null
                  },
                  "filters": 32,
                  "kernel_size": [
                    1,
                    1
                  ],
                  "strides": [
                    1,
                    1
                  ],
                  "padding": "same",
                  "data_format": "channels_last",
                  "dilation_rate": [
                    1,
                    1
                  ],
                  "groups": 1,
                  "activation": "linear",
                  "use_bias": false,
                  "kernel_initializer": {
                    "module": "keras.initializers",
                    "class_name": "GlorotUniform",
                    "config": {
                      "seed": null
                    },
                    "registered_name": null
                  },
                  "bias_initializer": {
                    "module": "keras.initializers",
                    "class_name": "Zeros",
                    "config": {},
                    "registered_name": null
                  },
                  "kernel_regularizer": null,
                  "bias_regularizer": null,
                  "activity_regularizer": null,
                  "kernel_constraint": null,
                  "bias_constraint": null
                },
                "registered_name": null,
                "build_config": {
                  "input_shape": [
                    null,
                    28,
                    28,
                    144
                  ]
                },
                "name": "block_3_project",
                "inbound_nodes": [
                  {
                    "args": [
                      {
                        "class_name": "__keras_tensor__",
                        "config": {
                          "shape": [
                            null,
                            28,
                            28,
                            144
                          ],
                          "dtype": "float32",
                          "keras_history": [
                            "block_3_depthwise_relu",
                            0,
                            0
                          ]
                        }
                      }
                    ],
                    "kwargs": {}
                  }
                ]
              },
              {
                "module": "keras.layers",
                "class_name": "BatchNormalization",
                "config": {
                  "name": "block_3_project_BN",
                  "trainable": false,
                  "dtype": {
                    "module": "keras",
                    "class_name": "DTypePolicy",
                    "config": {
                      "name": "float32"
                    },
                    "registered_name": null
                  },
                  "axis": -1,
                  "momentum": 0.999,
                  "epsilon": 0.001,
                  "center": true,
                  "scale": true,
                  "beta_initializer": {
                    "module": "keras.initializers",
                    "class_name": "Zeros",
                    "config": {},
                    "registered_name": null
                  },
                  "gamma_initializer": {
                    "module": "keras.initializers",
                    "class_name": "Ones",
                    "config": {},
                    "registered_name": null
                  },
                  "moving_mean_initializer": {
                    "module": "keras.initializers",
                    "class_name": "Zeros",
                    "config": {},
                    "registered_name": null
                  },
                  "moving_variance_initializer": {
                    "module": "keras.initializers",
                    "class_name": "Ones",
                    "config": {},
                    "registered_name": null
                  },
                  "beta_regularizer": null,
                  "gamma_regularizer": null,
                  "beta_constraint": null,
                  "gamma_constraint": null,
                  "synchronized": false,
                  "renorm": false,
                  "renorm_clipping": null,
                  "renorm_momentum": 0.99
                },
                "registered_name": null,
                "build_config": {
                  "input_shape": [
                    null,
                    28,
                    28,
                    32
                  ]
                },
                "name": "block_3_project_BN",
                "inbound_nodes": [
                  {
                    "args": [
                      {
                        "class_name": "__keras_tensor__",
                        "config": {
                          "shape": [
                            null,
                            28,
                            28,
                            32
                          ],
                          "dtype": "float32",
                          "keras_history": [
                            "block_3_project",
                            0,
                            0
                          ]
                        }
                      }
                    ],
                    "kwargs": {
                      "mask": null
                    }
                  }
                ]
              },
              {
                "module": "keras.layers",
                "class_name": "Conv2D",
                "config": {
                  "name": "block_4_expand",
                  "trainable": false,
                  "dtype": {
                    "module": "keras",
                    "class_name": "DTypePolicy",
                    "config": {
                      "name": "float32"
                    },
                    "registered_name": null
                  },
                  "filters": 192,
                  "kernel_size": [
                    1,
                    1
                  ],
                  "strides": [
                    1,
                    1
                  ],
                  "padding": "same",
                  "data_format": "channels_last",
                  "dilation_rate": [
                    1,
                    1
                  ],
                  "groups": 1,
                  "activation": "linear",
                  "use_bias": false,
                  "kernel_initializer": {
                    "module": "keras.initializers",
                    "class_name": "GlorotUniform",
                    "config": {
                      "seed": null
                    },
                    "registered_name": null
                  },
                  "bias_initializer": {
                    "module": "keras.initializers",
                    "class_name": "Zeros",
                    "config": {},
                    "registered_name": null
                  },
                  "kernel_regularizer": null,
                  "bias_regularizer": null,
                  "activity_regularizer": null,
                  "kernel_constraint": null,
                  "bias_constraint": null
                },
                "registered_name": null,
                "build_config": {
                  "input_shape": [
                    null,
                    28,
                    28,
                    32
                  ]
                },
                "name": "block_4_expand",
                "inbound_nodes": [
                  {
                    "args": [
                      {
                        "class_name": "__keras_tensor__",
                        "config": {
                          "shape": [
                            null,
                            28,
                            28,
                            32
                          ],
                          "dtype": "float32",
                          "keras_history": [
                            "block_3_project_BN",
                            0,
                            0
                          ]
                        }
                      }
                    ],
                    "kwargs": {}
                  }
                ]
              },
              {
                "module": "keras.layers",
                "class_name": "BatchNormalization",
                "config": {
                  "name": "block_4_expand_BN",
                  "trainable": false,
                  "dtype": {
                    "module": "keras",
                    "class_name": "DTypePolicy",
                    "config": {
                      "name": "float32"
                    },
                    "registered_name": null
                  },
                  "axis": -1,
                  "momentum": 0.999,
                  "epsilon": 0.001,
                  "center": true,
                  "scale": true,
                  "beta_initializer": {
                    "module": "keras.initializers",
                    "class_name": "Zeros",
                    "config": {},
                    "registered_name": null
                  },
                  "gamma_initializer": {
                    "module": "keras.initializers",
                    "class_name": "Ones",
                    "config": {},
                    "registered_name": null
                  },
                  "moving_mean_initializer": {
                    "module": "keras.initializers",
                    "class_name": "Zeros",
                    "config": {},
                    "registered_name": null
                  },
                  "moving_variance_initializer": {
                    "module": "keras.initializers",
                    "class_name": "Ones",
                    "config": {},
                    "registered_name": null
                  },
                  "beta_regularizer": null,
                  "gamma_regularizer": null,
                  "beta_constraint": null,
                  "gamma_constraint": null,
                  "synchronized": false,
                  "renorm": false,
                  "renorm_clipping": null,
                  "renorm_momentum": 0.99
                },
                "registered_name": null,
                "build_config": {
                  "input_shape": [
                    null,
                    28,
                    28,
                    192
                  ]
                },
                "name": "block_4_expand_BN",
                "inbound_nodes": [
                  {
                    "args": [
                      {
                        "class_name": "__keras_tensor__",
                        "config": {
                          "shape": [
                            null,
                            28,
                            28,
                            192
                          ],
                          "dtype": "float32",
                          "keras_history": [
                            "block_4_expand",
                            0,
                            0
                          ]
                        }
                      }
                    ],
                    "kwargs": {
                      "mask": null
                    }
                  }
                ]
              },
              {
                "module": "keras.layers",
                "class_name": "ReLU",
                "config": {
                  "name": "block_4_expand_relu",
                  "trainable": false,
                  "dtype": {
                    "module": "keras",
                    "class_name": "DTypePolicy",
                    "config": {
                      "name": "float32"
                    },
                    "registered_name": null
                  },
                  "max_value": 6.0,
                  "negative_slope": 0.0,
                  "threshold": 0.0
                },
                "registered_name": null,
                "name": "block_4_expand_relu",
                "inbound_nodes": [
                  {
                    "args": [
                      {
                        "class_name": "__keras_tensor__",
                        "config": {
                          "shape": [
                            null,
                            28,
                            28,
                            192
                          ],
                          "dtype": "float32",
                          "keras_history": [
                            "block_4_expand_BN",
                            0,
                            0
                          ]
                        }
                      }
                    ],
                    "kwargs": {}
                  }
                ]
              },
              {
                "module": "keras.layers",
                "class_name": "DepthwiseConv2D",
                "config": {
                  "name": "block_4_depthwise",
                  "trainable": false,
                  "dtype": {
                    "module": "keras",
                    "class_name": "DTypePolicy",
                    "config": {
                      "name": "float32"
                    },
                    "registered_name": null
                  },
                  "depth_multiplier": 1,
                  "kernel_size": [
                    3,
                    3
                  ],
                  "strides": [
                    1,
                    1
                  ],
                  "padding": "same",
                  "data_format": "channels_last",
                  "dilation_rate": [
                    1,
                    1
                  ],
                  "activation": "linear",
                  "use_bias": false,
                  "depthwise_initializer": {
                    "module": "keras.initializers",
                    "class_name": "GlorotUniform",
                    "config": {
                      "seed": null
                    },
                    "registered_name": null
                  },
                  "bias_initializer": {
                    "module": "keras.initializers",
                    "class_name": "Zeros",
                    "config": {},
                    "registered_name": null
                  },
                  "depthwise_regularizer": null,
                  "bias_regularizer": null,
                  "activity_regularizer": null,
                  "depthwise_constraint": null,
                  "bias_constraint": null
                },
                "registered_name": null,
                "build_config": {
                  "input_shape": [
                    null,
                    28,
                    28,
                    192
                  ]
                },
                "name": "block_4_depthwise",
                "inbound_nodes": [
                  {
                    "args": [
                      {
                        "class_name": "__keras_tensor__",
                        "config": {
                          "shape": [
                            null,
                            28,
                            28,
                            192
                          ],
                          "dtype": "float32",
                          "keras_history": [
                            "block_4_expand_relu",
                            0,
                            0
                          ]
                        }
                      }
                    ],
                    "kwargs": {}
                  }
                ]
              },
              {
                "module": "keras.layers",
                "class_name": "BatchNormalization",
                "config": {
                  "name": "block_4_depthwise_BN",
                  "trainable": false,
                  "dtype": {
                    "module": "keras",
                    "class_name": "DTypePolicy",
                    "config": {
                      "name": "float32"
                    },
                    "registered_name": null
                  },
                  "axis": -1,
                  "momentum": 0.999,
                  "epsilon": 0.001,
                  "center": true,
                  "scale": true,
                  "beta_initializer": {
                    "module": "keras.initializers",
                    "class_name": "Zeros",
                    "config": {},
                    "registered_name": null
                  },
                  "gamma_initializer": {
                    "module": "keras.initializers",
                    "class_name": "Ones",
                    "config": {},
                    "registered_name": null
                  },
                  "moving_mean_initializer": {
                    "module": "keras.initializers",
                    "class_name": "Zeros",
                    "config": {},
                    "registered_name": null
                  },
                  "moving_variance_initializer": {
                    "module": "keras.initializers",
                    "class_name": "Ones",
                    "config": {},
                    "registered_name": null
                  },
                  "beta_regularizer": null,
                  "gamma_regularizer": null,
                  "beta_constraint": null,
                  "gamma_constraint": null,
                  "synchronized": false,
                  "renorm": false,
                  "renorm_clipping": null,
                  "renorm_momentum": 0.99
                },
                "registered_name": null,
                "build_config": {
                  "input_shape": [
                    null,
                    28,
                    28,
                    192
                  ]
                },
                "name": "block_4_depthwise_BN",
                "inbound_nodes": [
                  {
                    "args": [
                      {
                        "class_name": "__keras_tensor__",
                        "config": {
                          "shape": [
                            null,
                            28,
                            28,
                            192
                          ],
                          "dtype": "float32",
                          "keras_history": [
                            "block_4_depthwise",
                            0,
                            0
                          ]
                        }
                      }
                    ],
                    "kwargs": {
                      "mask": null
                    }
                  }
                ]
              },
              {
                "module": "keras.layers",
                "class_name": "ReLU",
                "config": {
                  "name": "block_4_depthwise_relu",
                  "trainable": false,
                  "dtype": {
                    "module": "keras",
                    "class_name": "DTypePolicy",
                    "config": {
                      "name": "float32"
                    },
                    "registered_name": null
                  },
                  "max_value": 6.0,
                  "negative_slope": 0.0,
                  "threshold": 0.0
                },
                "registered_name": null,
                "name": "block_4_depthwise_relu",
                "inbound_nodes": [
                  {
                    "args": [
                      {
                        "class_name": "__keras_tensor__",
                        "config": {
                          "shape": [
                            null,
                            28,
                            28,
                            192
                          ],
                          "dtype": "float32",
                          "keras_history": [
                            "block_4_depthwise_BN",
                            0,
                            0
                          ]
                        }
                      }
                    ],
                    "kwargs": {}
                  }
                ]
              },
              {
                "module": "keras.layers",
                "class_name": "Conv2D",
                "config": {
                  "name": "block_4_project",
                  "trainable": false,
                  "dtype": {
                    "module": "keras",
                    "class_name": "DTypePolicy",
                    "config": {
                      "name": "float32"
                    },
                    "registered_name": null
                  },
                  "filters": 32,
                  "kernel_size": [
                    1,
                    1
                  ],
                  "strides": [
                    1,
                    1
                  ],
                  "padding": "same",
                  "data_format": "channels_last",
                  "dilation_rate": [
                    1,
                    1
                  ],
                  "groups": 1,
                  "activation": "linear",
                  "use_bias": false,
                  "kernel_initializer": {
                    "module": "keras.initializers",
                    "class_name": "GlorotUniform",
                    "config": {
                      "seed": null
                    },
                    "registered_name": null
                  },
                  "bias_initializer": {
                    "module": "keras.initializers",
                    "class_name": "Zeros",
                    "config": {},
                    "registered_name": null
                  },
                  "kernel_regularizer": null,
                  "bias_regularizer": null,
                  "activity_regularizer": null,
                  "kernel_constraint": null,
                  "bias_constraint": null
                },
                "registered_name": null,
                "build_config": {
                  "input_shape": [
                    null,
                    28,
                    28,
                    192
                  ]
                },
                "name": "block_4_project",
                "inbound_nodes": [
                  {
                    "args": [
                      {
                        "class_name": "__keras_tensor__",
                        "config": {
                          "shape": [
                            null,
                            28,
                            28,
                            192
                          ],
                          "dtype": "float32",
                          "keras_history": [
                            "block_4_depthwise_relu",
                            0,
                            0
                          ]
                        }
                      }
                    ],
                    "kwargs": {}
                  }
                ]
              },
              {
                "module": "keras.layers",
                "class_name": "BatchNormalization",
                "config": {
                  "name": "block_4_project_BN",
                  "trainable": false,
                  "dtype": {
                    "module": "keras",
                    "class_name": "DTypePolicy",
                    "config": {
                      "name": "float32"
                    },
                    "registered_name": null
                  },
                  "axis": -1,
                  "momentum": 0.999,
                  "epsilon": 0.001,
                  "center": true,
                  "scale": true,
                  "beta_initializer": {
                    "module": "keras.initializers",
                    "class_name": "Zeros",
                    "config": {},
                    "registered_name": null
                  },
                  "gamma_initializer": {
                    "module": "keras.initializers",
                    "class_name": "Ones",
                    "config": {},
                    "registered_name": null
                  },
                  "moving_mean_initializer": {
                    "module": "keras.initializers",
                    "class_name": "Zeros",
                    "config": {},
                    "registered_name": null
                  },
                  "moving_variance_initializer": {
                    "module": "keras.initializers",
                    "class_name": "Ones",
                    "config": {},
                    "registered_name": null
                  },
                  "beta_regularizer": null,
                  "gamma_regularizer": null,
                  "beta_constraint": null,
                  "gamma_constraint": null,
                  "synchronized": false,
                  "renorm": false,
                  "renorm_clipping": null,
                  "renorm_momentum": 0.99
                },
                "registered_name": null,
                "build_config": {
                  "input_shape": [
                    null,
                    28,
                    28,
                    32
                  ]
                },
                "name": "block_4_project_BN",
                "inbound_nodes": [
                  {
                    "args": [
                      {
                        "class_name": "__keras_tensor__",
                        "config": {
                          "shape": [
                            null,
                            28,
                            28,
                            32
                          ],
                          "dtype": "float32",
                          "keras_history": [
                            "block_4_project",
                            0,
                            0
                          ]
                        }
                      }
                    ],
                    "kwargs": {
                      "mask": null
                    }
                  }
                ]
              },
              {
                "module": "keras.layers",
                "class_name": "Add",
                "config": {
                  "name": "block_4_add",
                  "trainable": false,
                  "dtype": {
                    "module": "keras",
                    "class_name": "DTypePolicy",
                    "config": {
                      "name": "float32"
                    },
                    "registered_name": null
                  }
                },
                "registered_name": null,
                "build_config": {
                  "input_shape": [
                    [
                      null,
                      28,
                      28,
                      32
                    ],
                    [
                      null,
                      28,
                      28,
                      32
                    ]
                  ]
                },
                "name": "block_4_add",
                "inbound_nodes": [
                  {
                    "args": [
                      [
                        {
                          "class_name": "__keras_tensor__",
                          "config": {
                            "shape": [
                              null,
                              28,
                              28,
                              32
                            ],
                            "dtype": "float32",
                            "keras_history": [
                              "block_3_project_BN",
                              0,
                              0
                            ]
                          }
                        },
                        {
                          "class_name": "__keras_tensor__",
                          "config": {
                            "shape": [
                              null,
                              28,
                              28,
                              32
                            ],
                            "dtype": "float32",
                            "keras_history": [
                              "block_4_project_BN",
                              0,
                              0
                            ]
                          }
                        }
                      ]
                    ],
                    "kwargs": {}
                  }
                ]
              },
              {
                "module": "keras.layers",
                "class_name": "Conv2D",
                "config": {
                  "name": "block_5_expand",
                  "trainable": false,
                  "dtype": {
                    "module": "keras",
                    "class_name": "DTypePolicy",
                    "config": {
                      "name": "float32"
                    },
                    "registered_name": null
                  },
                  "filters": 192,
                  "kernel_size": [
                    1,
                    1
                  ],
                  "strides": [
                    1,
                    1
                  ],
                  "padding": "same",
                  "data_format": "channels_last",
                  "dilation_rate": [
                    1,
                    1
                  ],
                  "groups": 1,
                  "activation": "linear",
                  "use_bias": false,
                  "kernel_initializer": {
                    "module": "keras.initializers",
                    "class_name": "GlorotUniform",
                    "config": {
                      "seed": null
                    },
                    "registered_name": null
                  },
                  "bias_initializer": {
                    "module": "keras.initializers",
                    "class_name": "Zeros",
                    "config": {},
                    "registered_name": null
                  },
                  "kernel_regularizer": null,
                  "bias_regularizer": null,
                  "activity_regularizer": null,
                  "kernel_constraint": null,
                  "bias_constraint": null
                },
                "registered_name": null,
                "build_config": {
                  "input_shape": [
                    null,
                    28,
                    28,
                    32
                  ]
                },
                "name": "block_5_expand",
                "inbound_nodes": [
                  {
                    "args": [
                      {
                        "class_name": "__keras_tensor__",
                        "config": {
                          "shape": [
                            null,
                            28,
                            28,
                            32
                          ],
                          "dtype": "float32",
                          "keras_history": [
                            "block_4_add",
                            0,
                            0
                          ]
                        }
                      }
                    ],
                    "kwargs": {}
                  }
                ]
              },
              {
                "module": "keras.layers",
                "class_name": "BatchNormalization",
                "config": {
                  "name": "block_5_expand_BN",
                  "trainable": false,
                  "dtype": {
                    "module": "keras",
                    "class_name": "DTypePolicy",
                    "config": {
                      "name": "float32"
                    },
                    "registered_name": null
                  },
                  "axis": -1,
                  "momentum": 0.999,
                  "epsilon": 0.001,
                  "center": true,
                  "scale": true,
                  "beta_initializer": {
                    "module": "keras.initializers",
                    "class_name": "Zeros",
                    "config": {},
                    "registered_name": null
                  },
                  "gamma_initializer": {
                    "module": "keras.initializers",
                    "class_name": "Ones",
                    "config": {},
                    "registered_name": null
                  },
                  "moving_mean_initializer": {
                    "module": "keras.initializers",
                    "class_name": "Zeros",
                    "config": {},
                    "registered_name": null
                  },
                  "moving_variance_initializer": {
                    "module": "keras.initializers",
                    "class_name": "Ones",
                    "config": {},
                    "registered_name": null
                  },
                  "beta_regularizer": null,
                  "gamma_regularizer": null,
                  "beta_constraint": null,
                  "gamma_constraint": null,
                  "synchronized": false,
                  "renorm": false,
                  "renorm_clipping": null,
                  "renorm_momentum": 0.99
                },
                "registered_name": null,
                "build_config": {
                  "input_shape": [
                    null,
                    28,
                    28,
                    192
                  ]
                },
                "name": "block_5_expand_BN",
                "inbound_nodes": [
                  {
                    "args": [
                      {
                        "class_name": "__keras_tensor__",
                        "config": {
                          "shape": [
                            null,
                            28,
                            28,
                            192
                          ],
                          "dtype": "float32",
                          "keras_history": [
                            "block_5_expand",
                            0,
                            0
                          ]
                        }
                      }
                    ],
                    "kwargs": {
                      "mask": null
                    }
                  }
                ]
              },
              {
                "module": "keras.layers",
                "class_name": "ReLU",
                "config": {
                  "name": "block_5_expand_relu",
                  "trainable": false,
                  "dtype": {
                    "module": "keras",
                    "class_name": "DTypePolicy",
                    "config": {
                      "name": "float32"
                    },
                    "registered_name": null
                  },
                  "max_value": 6.0,
                  "negative_slope": 0.0,
                  "threshold": 0.0
                },
                "registered_name": null,
                "name": "block_5_expand_relu",
                "inbound_nodes": [
                  {
                    "args": [
                      {
                        "class_name": "__keras_tensor__",
                        "config": {
                          "shape": [
                            null,
                            28,
                            28,
                            192
                          ],
                          "dtype": "float32",
                          "keras_history": [
                            "block_5_expand_BN",
                            0,
                            0
                          ]
                        }
                      }
                    ],
                    "kwargs": {}
                  }
                ]
              },
              {
                "module": "keras.layers",
                "class_name": "DepthwiseConv2D",
                "config": {
                  "name": "block_5_depthwise",
                  "trainable": false,
                  "dtype": {
                    "module": "keras",
                    "class_name": "DTypePolicy",
                    "config": {
                      "name": "float32"
                    },
                    "registered_name": null
                  },
                  "depth_multiplier": 1,
                  "kernel_size": [
                    3,
                    3
                  ],
                  "strides": [
                    1,
                    1
                  ],
                  "padding": "same",
                  "data_format": "channels_last",
                  "dilation_rate": [
                    1,
                    1
                  ],
                  "activation": "linear",
                  "use_bias": false,
                  "depthwise_initializer": {
                    "module": "keras.initializers",
                    "class_name": "GlorotUniform",
                    "config": {
                      "seed": null
                    },
                    "registered_name": null
                  },
                  "bias_initializer": {
                    "module": "keras.initializers",
                    "class_name": "Zeros",
                    "config": {},
                    "registered_name": null
                  },
                  "depthwise_regularizer": null,
                  "bias_regularizer": null,
                  "activity_regularizer": null,
                  "depthwise_constraint": null,
                  "bias_constraint": null
                },
                "registered_name": null,
                "build_config": {
                  "input_shape": [
                    null,
                    28,
                    28,
                    192
                  ]
                },
                "name": "block_5_depthwise",
                "inbound_nodes": [
                  {
                    "args": [
                      {
                        "class_name": "__keras_tensor__",
                        "config": {
                          "shape": [
                            null,
                            28,
                            28,
                            192
                          ],
                          "dtype": "float32",
                          "keras_history": [
                            "block_5_expand_relu",
                            0,
                            0
                          ]
                        }
                      }
                    ],
                    "kwargs": {}
                  }
                ]
              },
              {
                "module": "keras.layers",
                "class_name": "BatchNormalization",
                "config": {
                  "name": "block_5_depthwise_BN",
                  "trainable": false,
                  "dtype": {
                    "module": "keras",
                    "class_name": "DTypePolicy",
                    "config": {
                      "name": "float32"
                    },
                    "registered_name": null
                  },
                  "axis": -1,
                  "momentum": 0.999,
                  "epsilon": 0.001,
                  "center": true,
                  "scale": true,
                  "beta_initializer": {
                    "module": "keras.initializers",
                    "class_name": "Zeros",
                    "config": {},
                    "registered_name": null
                  },
                  "gamma_initializer": {
                    "module": "keras.initializers",
                    "class_name": "Ones",
                    "config": {},
                    "registered_name": null
                  },
                  "moving_mean_initializer": {
                    "module": "keras.initializers",
                    "class_name": "Zeros",
                    "config": {},
                    "registered_name": null
                  },
                  "moving_variance_initializer": {
                    "module": "keras.initializers",
                    "class_name": "Ones",
                    "config": {},
                    "registered_name": null
                  },
                  "beta_regularizer": null,
                  "gamma_regularizer": null,
                  "beta_constraint": null,
                  "gamma_constraint": null,
                  "synchronized": false,
                  "renorm": false,
                  "renorm_clipping": null,
                  "renorm_momentum": 0.99
                },
                "registered_name": null,
                "build_config": {
                  "input_shape": [
                    null,
                    28,
                    28,
                    192
                  ]
                },
                "name": "block_5_depthwise_BN",
                "inbound_nodes": [
                  {
                    "args": [
                      {
                        "class_name": "__keras_tensor__",
                        "config": {
                          "shape": [
                            null,
                            28,
                            28,
                            192
                          ],
                          "dtype": "float32",
                          "keras_history": [
                            "block_5_depthwise",
                            0,
                            0
                          ]
                        }
                      }
                    ],
                    "kwargs": {
                      "mask": null
                    }
                  }
                ]
              },
              {
                "module": "keras.layers",
                "class_name": "ReLU",
                "config": {
                  "name": "block_5_depthwise_relu",
                  "trainable": false,
                  "dtype": {
                    "module": "keras",
                    "class_name": "DTypePolicy",
                    "config": {
                      "name": "float32"
                    },
                    "registered_name": null
                  },
                  "max_value": 6.0,
                  "negative_slope": 0.0,
                  "threshold": 0.0
                },
                "registered_name": null,
                "name": "block_5_depthwise_relu",
                "inbound_nodes": [
                  {
                    "args": [
                      {
                        "class_name": "__keras_tensor__",
                        "config": {
                          "shape": [
                            null,
                            28,
                            28,
                            192
                          ],
                          "dtype": "float32",
                          "keras_history": [
                            "block_5_depthwise_BN",
                            0,
                            0
                          ]
                        }
                      }
                    ],
                    "kwargs": {}
                  }
                ]
              },
              {
                "module": "keras.layers",
                "class_name": "Conv2D",
                "config": {
                  "name": "block_5_project",
                  "trainable": false,
                  "dtype": {
                    "module": "keras",
                    "class_name": "DTypePolicy",
                    "config": {
                      "name": "float32"
                    },
                    "registered_name": null
                  },
                  "filters": 32,
                  "kernel_size": [
                    1,
                    1
                  ],
                  "strides": [
                    1,
                    1
                  ],
                  "padding": "same",
                  "data_format": "channels_last",
                  "dilation_rate": [
                    1,
                    1
                  ],
                  "groups": 1,
                  "activation": "linear",
                  "use_bias": false,
                  "kernel_initializer": {
                    "module": "keras.initializers",
                    "class_name": "GlorotUniform",
                    "config": {
                      "seed": null
                    },
                    "registered_name": null
                  },
                  "bias_initializer": {
                    "module": "keras.initializers",
                    "class_name": "Zeros",
                    "config": {},
                    "registered_name": null
                  },
                  "kernel_regularizer": null,
                  "bias_regularizer": null,
                  "activity_regularizer": null,
                  "kernel_constraint": null,
                  "bias_constraint": null
                },
                "registered_name": null,
                "build_config": {
                  "input_shape": [
                    null,
                    28,
                    28,
                    192
                  ]
                },
                "name": "block_5_project",
                "inbound_nodes": [
                  {
                    "args": [
                      {
                        "class_name": "__keras_tensor__",
                        "config": {
                          "shape": [
                            null,
                            28,
                            28,
                            192
                          ],
                          "dtype": "float32",
                          "keras_history": [
                            "block_5_depthwise_relu",
                            0,
                            0
                          ]
                        }
                      }
                    ],
                    "kwargs": {}
                  }
                ]
              },
              {
                "module": "keras.layers",
                "class_name": "BatchNormalization",
                "config": {
                  "name": "block_5_project_BN",
                  "trainable": false,
                  "dtype": {
                    "module": "keras",
                    "class_name": "DTypePolicy",
                    "config": {
                      "name": "float32"
                    },
                    "registered_name": null
                  },
                  "axis": -1,
                  "momentum": 0.999,
                  "epsilon": 0.001,
                  "center": true,
                  "scale": true,
                  "beta_initializer": {
                    "module": "keras.initializers",
                    "class_name": "Zeros",
                    "config": {},
                    "registered_name": null
                  },
                  "gamma_initializer": {
                    "module": "keras.initializers",
                    "class_name": "Ones",
                    "config": {},
                    "registered_name": null
                  },
                  "moving_mean_initializer": {
                    "module": "keras.initializers",
                    "class_name": "Zeros",
                    "config": {},
                    "registered_name": null
                  },
                  "moving_variance_initializer": {
                    "module": "keras.initializers",
                    "class_name": "Ones",
                    "config": {},
                    "registered_name": null
                  },
                  "beta_regularizer": null,
                  "gamma_regularizer": null,
                  "beta_constraint": null,
                  "gamma_constraint": null,
                  "synchronized": false,
                  "renorm": false,
                  "renorm_clipping": null,
                  "renorm_momentum": 0.99
                },
                "registered_name": null,
                "build_config": {
                  "input_shape": [
                    null,
                    28,
                    28,
                    32
                  ]
                },
                "name": "block_5_project_BN",
                "inbound_nodes": [
                  {
                    "args": [
                      {
                        "class_name": "__keras_tensor__",
                        "config": {
                          "shape": [
                            null,
                            28,
                            28,
                            32
                          ],
                          "dtype": "float32",
                          "keras_history": [
                            "block_5_project",
                            0,
                            0
                          ]
                        }
                      }
                    ],
                    "kwargs": {
                      "mask": null
                    }
                  }
                ]
              },
              {
                "module": "keras.layers",
                "class_name": "Add",
                "config": {
                  "name": "block_5_add",
                  "trainable": false,
                  "dtype": {
                    "module": "keras",
                    "class_name": "DTypePolicy",
                    "config": {
                      "name": "float32"
                    },
                    "registered_name": null
                  }
                },
                "registered_name": null,
                "build_config": {
                  "input_shape": [
                    [
                      null,
                      28,
                      28,
                      32
                    ],
                    [
                      null,
                      28,
                      28,
                      32
                    ]
                  ]
                },
                "name": "block_5_add",
                "inbound_nodes": [
                  {
                    "args": [
                      [
                        {
                          "class_name": "__keras_tensor__",
                          "config": {
                            "shape": [
                              null,
                              28,
                              28,
                              32
                            ],
                            "dtype": "float32",
                            "keras_history": [
                              "block_4_add",
                              0,
                              0
                            ]
                          }
                        },
                        {
                          "class_name": "__keras_tensor__",
                          "config": {
                            "shape": [
                              null,
                              28,
                              28,
                              32
                            ],
                            "dtype": "float32",
                            "keras_history": [
                              "block_5_project_BN",
                              0,
                              0
                            ]
                          }
                        }
                      ]
                    ],
                    "kwargs": {}
                  }
                ]
              },
              {
                "module": "keras.layers",
                "class_name": "Conv2D",
                "config": {
                  "name": "block_6_expand",
                  "trainable": false,
                  "dtype": {
                    "module": "keras",
                    "class_name": "DTypePolicy",
                    "config": {
                      "name": "float32"
                    },
                    "registered_name": null
                  },
                  "filters": 192,
                  "kernel_size": [
                    1,
                    1
                  ],
                  "strides": [
                    1,
                    1
                  ],
                  "padding": "same",
                  "data_format": "channels_last",
                  "dilation_rate": [
                    1,
                    1
                  ],
                  "groups": 1,
                  "activation": "linear",
                  "use_bias": false,
                  "kernel_initializer": {
                    "module": "keras.initializers",
                    "class_name": "GlorotUniform",
                    "config": {
                      "seed": null
                    },
                    "registered_name": null
                  },
                  "bias_initializer": {
                    "module": "keras.initializers",
                    "class_name": "Zeros",
                    "config": {},
                    "registered_name": null
                  },
                  "kernel_regularizer": null,
                  "bias_regularizer": null,
                  "activity_regularizer": null,
                  "kernel_constraint": null,
                  "bias_constraint": null
                },
                "registered_name": null,
                "build_config": {
                  "input_shape": [
                    null,
                    28,
                    28,
                    32
                  ]
                },
                "name": "block_6_expand",
                "inbound_nodes": [
                  {
                    "args": [
                      {
                        "class_name": "__keras_tensor__",
                        "config": {
                          "shape": [
                            null,
                            28,
                            28,
                            32
                          ],
                          "dtype": "float32",
                          "keras_history": [
                            "block_5_add",
                            0,
                            0
                          ]
                        }
                      }
                    ],
                    "kwargs": {}
                  }
                ]
              },
              {
                "module": "keras.layers",
                "class_name": "BatchNormalization",
                "config": {
                  "name": "block_6_expand_BN",
                  "trainable": false,
                  "dtype": {
                    "module": "keras",
                    "class_name": "DTypePolicy",
                    "config": {
                      "name": "float32"
                    },
                    "registered_name": null
                  },
                  "axis": -1,
                  "momentum": 0.999,
                  "epsilon": 0.001,
                  "center": true,
                  "scale": true,
                  "beta_initializer": {
                    "module": "keras.initializers",
                    "class_name": "Zeros",
                    "config": {},
                    "registered_name": null
                  },
                  "gamma_initializer": {
                    "module": "keras.initializers",
                    "class_name": "Ones",
                    "config": {},
                    "registered_name": null
                  },
                  "moving_mean_initializer": {
                    "module": "keras.initializers",
                    "class_name": "Zeros",
                    "config": {},
                    "registered_name": null
                  },
                  "moving_variance_initializer": {
                    "module": "keras.initializers",
                    "class_name": "Ones",
                    "config": {},
                    "registered_name": null
                  },
                  "beta_regularizer": null,
                  "gamma_regularizer": null,
                  "beta_constraint": null,
                  "gamma_constraint": null,
                  "synchronized": false,
                  "renorm": false,
                  "renorm_clipping": null,
                  "renorm_momentum": 0.99
                },
                "registered_name": null,
                "build_config": {
                  "input_shape": [
                    null,
                    28,
                    28,
                    192
                  ]
                },
                "name": "block_6_expand_BN",
                "inbound_nodes": [
                  {
                    "args": [
                      {
                        "class_name": "__keras_tensor__",
                        "config": {
                          "shape": [
                            null,
                            28,
                            28,
                            192
                          ],
                          "dtype": "float32",
                          "keras_history": [
                            "block_6_expand",
                            0,
                            0
                          ]
                        }
                      }
                    ],
                    "kwargs": {
                      "mask": null
                    }
                  }
                ]
              },
              {
                "module": "keras.layers",
                "class_name": "ReLU",
                "config": {
                  "name": "block_6_expand_relu",
                  "trainable": false,
                  "dtype": {
                    "module": "keras",
                    "class_name": "DTypePolicy",
                    "config": {
                      "name": "float32"
                    },
                    "registered_name": null
                  },
                  "max_value": 6.0,
                  "negative_slope": 0.0,
                  "threshold": 0.0
                },
                "registered_name": null,
                "name": "block_6_expand_relu",
                "inbound_nodes": [
                  {
                    "args": [
                      {
                        "class_name": "__keras_tensor__",
                        "config": {
                          "shape": [
                            null,
                            28,
                            28,
                            192
                          ],
                          "dtype": "float32",
                          "keras_history": [
                            "block_6_expand_BN",
                            0,
                            0
                          ]
                        }
                      }
                    ],
                    "kwargs": {}
                  }
                ]
              },
              {
                "module": "keras.layers",
                "class_name": "ZeroPadding2D",
                "config": {
                  "name": "block_6_pad",
                  "trainable": false,
                  "dtype": {
                    "module": "keras",
                    "class_name": "DTypePolicy",
                    "config": {
                      "name": "float32"
                    },
                    "registered_name": null
                  },
                  "padding": [
                    [
                      0,
                      1
                    ],
                    [
                      0,
                      1
                    ]
                  ],
                  "data_format": "channels_last"
                },
                "registered_name": null,
                "build_config": {
                  "input_shape": [
                    null,
                    28,
                    28,
                    192
                  ]
                },
                "name": "block_6_pad",
                "inbound_nodes": [
                  {
                    "args": [
                      {
                        "class_name": "__keras_tensor__",
                        "config": {
                          "shape": [
                            null,
                            28,
                            28,
                            192
                          ],
                          "dtype": "float32",
                          "keras_history": [
                            "block_6_expand_relu",
                            0,
                            0
                          ]
                        }
                      }
                    ],
                    "kwargs": {}
                  }
                ]
              },
              {
                "module": "keras.layers",
                "class_name": "DepthwiseConv2D",
                "config": {
                  "name": "block_6_depthwise",
                  "trainable": false,
                  "dtype": {
                    "module": "keras",
                    "class_name": "DTypePolicy",
                    "config": {
                      "name": "float32"
                    },
                    "registered_name": null
                  },
                  "depth_multiplier": 1,
                  "kernel_size": [
                    3,
                    3
                  ],
                  "strides": [
                    2,
                    2
                  ],
                  "padding": "valid",
                  "data_format": "channels_last",
                  "dilation_rate": [
                    1,
                    1
                  ],
                  "activation": "linear",
                  "use_bias": false,
                  "depthwise_initializer": {
                    "module": "keras.initializers",
                    "class_name": "GlorotUniform",
                    "config": {
                      "seed": null
                    },
                    "registered_name": null
                  },
                  "bias_initializer": {
                    "module": "keras.initializers",
                    "class_name": "Zeros",
                    "config": {},
                    "registered_name": null
                  },
                  "depthwise_regularizer": null,
                  "bias_regularizer": null,
                  "activity_regularizer": null,
                  "depthwise_constraint": null,
                  "bias_constraint": null
                },
                "registered_name": null,
                "build_config": {
                  "input_shape": [
                    null,
                    29,
                    29,
                    192
…
                    "registered_name": null
                  },
                  "moving_mean_initializer": {
                    "module": "keras.initializers",
                    "class_name": "Zeros",
                    "config": {},
                    "registered_name": null
                  },
                  "moving_variance_initializer": {
                    "module": "keras.initializers",
                    "class_name": "Ones",
                    "config": {},
                    "registered_name": null
                  },
                  "beta_regularizer": null,
                  "gamma_regularizer": null,
                  "beta_constraint": null,
                  "gamma_constraint": null,
                  "synchronized": false,
                  "renorm": false,
                  "renorm_clipping": null,
                  "renorm_momentum": 0.99
                },
                "registered_name": null,
                "build_config": {
                  "input_shape": [
                    null,
                    7,
                    7,
                    320
                  ]
                },
                "name": "block_16_project_BN",
                "inbound_nodes": [
                  {
                    "args": [
                      {
                        "class_name": "__keras_tensor__",
                        "config": {
                          "shape": [
                            null,
                            7,
                            7,
                            320
                          ],
                          "dtype": "float32",
                          "keras_history": [
                            "block_16_project",
                            0,
                            0
                          ]
                        }
                      }
                    ],
                    "kwargs": {
                      "mask": null
                    }
                  }
                ]
              },
              {
                "module": "keras.layers",
                "class_name": "Conv2D",
                "config": {
                  "name": "Conv_1",
                  "trainable": false,
                  "dtype": {
                    "module": "keras",
                    "class_name": "DTypePolicy",
                    "config": {
                      "name": "float32"
                    },
                    "registered_name": null
                  },
                  "filters": 1280,
                  "kernel_size": [
                    1,
                    1
                  ],
                  "strides": [
                    1,
                    1
                  ],
                  "padding": "valid",
                  "data_format": "channels_last",
                  "dilation_rate": [
                    1,
                    1
                  ],
                  "groups": 1,
                  "activation": "linear",
                  "use_bias": false,
                  "kernel_initializer": {
                    "module": "keras.initializers",
                    "class_name": "GlorotUniform",
                    "config": {
                      "seed": null
                    },
                    "registered_name": null
                  },
                  "bias_initializer": {
                    "module": "keras.initializers",
                    "class_name": "Zeros",
                    "config": {},
                    "registered_name": null
                  },
                  "kernel_regularizer": null,
                  "bias_regularizer": null,
                  "activity_regularizer": null,
                  "kernel_constraint": null,
                  "bias_constraint": null
                },
                "registered_name": null,
                "build_config": {
                  "input_shape": [
                    null,
                    7,
                    7,
                    320
                  ]
                },
                "name": "Conv_1",
                "inbound_nodes": [
                  {
                    "args": [
                      {
                        "class_name": "__keras_tensor__",
                        "config": {
                          "shape": [
                            null,
                            7,
                            7,
                            320
                          ],
                          "dtype": "float32",
                          "keras_history": [
                            "block_16_project_BN",
                            0,
                            0
                          ]
                        }
                      }
                    ],
                    "kwargs": {}
                  }
                ]
              },
              {
                "module": "keras.layers",
                "class_name": "BatchNormalization",
                "config": {
                  "name": "Conv_1_bn",
                  "trainable": false,
                  "dtype": {
                    "module": "keras",
                    "class_name": "DTypePolicy",
                    "config": {
                      "name": "float32"
                    },
                    "registered_name": null
                  },
                  "axis": -1,
                  "momentum": 0.999,
                  "epsilon": 0.001,
                  "center": true,
                  "scale": true,
                  "beta_initializer": {
                    "module": "keras.initializers",
                    "class_name": "Zeros",
                    "config": {},
                    "registered_name": null
                  },
                  "gamma_initializer": {
                    "module": "keras.initializers",
                    "class_name": "Ones",
                    "config": {},
                    "registered_name": null
                  },
                  "moving_mean_initializer": {
                    "module": "keras.initializers",
                    "class_name": "Zeros",
                    "config": {},
                    "registered_name": null
                  },
                  "moving_variance_initializer": {
                    "module": "keras.initializers",
                    "class_name": "Ones",
                    "config": {},
                    "registered_name": null
                  },
                  "beta_regularizer": null,
                  "gamma_regularizer": null,
                  "beta_constraint": null,
                  "gamma_constraint": null,
                  "synchronized": false,
                  "renorm": false,
                  "renorm_clipping": null,
                  "renorm_momentum": 0.99
                },
                "registered_name": null,
                "build_config": {
                  "input_shape": [
                    null,
                    7,
                    7,
                    1280
                  ]
                },
                "name": "Conv_1_bn",
                "inbound_nodes": [
                  {
                    "args": [
                      {
                        "class_name": "__keras_tensor__",
                        "config": {
                          "shape": [
                            null,
                            7,
                            7,
                            1280
                          ],
                          "dtype": "float32",
                          "keras_history": [
                            "Conv_1",
                            0,
                            0
                          ]
                        }
                      }
                    ],
                    "kwargs": {
                      "mask": null
                    }
                  }
                ]
              },
              {
                "module": "keras.layers",
                "class_name": "ReLU",
                "config": {
                  "name": "out_relu",
                  "trainable": false,
                  "dtype": {
                    "module": "keras",
                    "class_name": "DTypePolicy",
                    "config": {
                      "name": "float32"
                    },
                    "registered_name": null
                  },
                  "max_value": 6.0,
                  "negative_slope": 0.0,
                  "threshold": 0.0
                },
                "registered_name": null,
                "name": "out_relu",
                "inbound_nodes": [
                  {
                    "args": [
                      {
                        "class_name": "__keras_tensor__",
                        "config": {
                          "shape": [
                            null,
                            7,
                            7,
                            1280
                          ],
                          "dtype": "float32",
                          "keras_history": [
                            "Conv_1_bn",
                            0,
                            0
                          ]
                        }
                      }
                    ],
                    "kwargs": {}
                  }
                ]
              }
            ],
            "input_layers": [
              "input_layer",
              0,
              0
            ],
            "output_layers": [
              "out_relu",
              0,
              0
            ]
          },
          "registered_name": "Functional",
          "build_config": {
            "input_shape": null
          },
          "compile_config": {}
        },
        {
          "module": "keras.layers",
          "class_name": "GlobalAveragePooling2D",
          "config": {
            "name": "global_average_pooling2d",
            "trainable": true,
            "dtype": {
              "module": "keras",
              "class_name": "DTypePolicy",
              "config": {
                "name": "float32"
              },
              "registered_name": null
            },
            "data_format": "channels_last",
            "keepdims": false
          },
          "registered_name": null
        },
        {
          "module": "keras.layers",
          "class_name": "Dropout",
          "config": {
            "name": "dropout",
            "trainable": true,
            "dtype": {
              "module": "keras",
              "class_name": "DTypePolicy",
              "config": {
                "name": "float32"
              },
              "registered_name": null
            },
            "rate": 0.5,
            "seed": null,
            "noise_shape": null
          },
          "registered_name": null
        },
        {
          "module": "keras.layers",
          "class_name": "Dense",
          "config": {
            "name": "dense",
            "trainable": true,
            "dtype": {
              "module": "keras",
              "class_name": "DTypePolicy",
              "config": {
                "name": "float32"
              },
              "registered_name": null
            },
            "units": 512,
            "activation": "relu",
            "use_bias": true,
            "kernel_initializer": {
              "module": "keras.initializers",
              "class_name": "GlorotUniform",
              "config": {
                "seed": null
              },
              "registered_name": null
            },
            "bias_initializer": {
              "module": "keras.initializers",
              "class_name": "Zeros",
              "config": {},
              "registered_name": null
            },
            "kernel_regularizer": null,
            "bias_regularizer": null,
            "kernel_constraint": null,
            "bias_constraint": null,
            "quantization_config": null
          },
          "registered_name": null,
          "build_config": {
            "input_shape": [
              null,
              1280
            ]
          }
        },
        {
          "module": "keras.layers",
          "class_name": "Dropout",
          "config": {
            "name": "dropout_1",
            "trainable": true,
            "dtype": {
              "module": "keras",
              "class_name": "DTypePolicy",
              "config": {
                "name": "float32"
              },
              "registered_name": null
            },
            "rate": 0.3,
            "seed": null,
            "noise_shape": null
          },
          "registered_name": null
        },
        {
          "module": "keras.layers",
          "class_name": "Dense",
          "config": {
            "name": "dense_1",
            "trainable": true,
            "dtype": {
              "module": "keras",
              "class_name": "DTypePolicy",
              "config": {
                "name": "float32"
              },
              "registered_name": null
            },
            "units": 151,
            "activation": "softmax",
            "use_bias": true,
            "kernel_initializer": {
              "module": "keras.initializers",
              "class_name": "GlorotUniform",
              "config": {
                "seed": null
              },
              "registered_name": null
            },
            "bias_initializer": {
              "module": "keras.initializers",
              "class_name": "Zeros",
              "config": {},
              "registered_name": null
            },
            "kernel_regularizer": null,
            "bias_regularizer": null,
            "kernel_constraint": null,
            "bias_constraint": null,
            "quantization_config": null
          },
          "registered_name": null,
          "build_config": {
            "input_shape": [
              null,
              512
            ]
          }
        }
      ],
      "build_input_shape": [
        null,
        224,
        224,
        3
      ]
    }
  },
  "weightsManifest": [
    {
      "paths": [
        "group0-shard1of1.bin",
        "group1-shard1of1.bin",
        "group2-shard1of1.bin",
        "group3-shard1of1.bin"
      ],
      "weights": [
        {
          "name": "w0",
          "shape": [
            3,
            3,
            3,
            32
          ],
          "dtype": "float32"
        },
        {
          "name": "w1",
          "shape": [
            32
          ],
          "dtype": "float32"
        },
        {
          "name": "w2",
          "shape": [
            32
          ],
          "dtype": "float32"
        },
        {
          "name": "w3",
          "shape": [
            32
          ],
          "dtype": "float32"
        },
        {
          "name": "w4",
          "shape": [
            32
          ],
          "dtype": "float32"
        },
        {
          "name": "w5",
          "shape": [
            3,
            3,
            32,
            1
          ],
          "dtype": "float32"
        },
        {
          "name": "w6",
          "shape": [
            32
          ],
          "dtype": "float32"
        },
        {
          "name": "w7",
          "shape": [
            32
          ],
          "dtype": "float32"
        },
        {
          "name": "w8",
          "shape": [
            32
          ],
          "dtype": "float32"
        },
        {
          "name": "w9",
          "shape": [
            32
          ],
          "dtype": "float32"
        },
        {
          "name": "w10",
          "shape": [
            1,
            1,
            32,
            16
          ],
          "dtype": "float32"
        },
        {
          "name": "w11",
          "shape": [
            16
          ],
          "dtype": "float32"
        },
        {
          "name": "w12",
          "shape": [
            16
          ],
          "dtype": "float32"
        },
        {
          "name": "w13",
          "shape": [
            16
          ],
          "dtype": "float32"
        },
        {
          "name": "w14",
          "shape": [
            16
          ],
          "dtype": "float32"
        },
        {
          "name": "w15",
          "shape": [
            1,
            1,
            16,
            96
          ],
          "dtype": "float32"
        },
        {
          "name": "w16",
          "shape": [
            96
          ],
          "dtype": "float32"
        },
        {
          "name": "w17",
          "shape": [
            96
          ],
          "dtype": "float32"
        },
        {
          "name": "w18",
          "shape": [
            96
          ],
          "dtype": "float32"
        },
        {
          "name": "w19",
          "shape": [
            96
          ],
          "dtype": "float32"
        },
        {
          "name": "w20",
          "shape": [
            3,
            3,
            96,
            1
          ],
          "dtype": "float32"
        },
        {
          "name": "w21",
          "shape": [
            96
          ],
          "dtype": "float32"
        },
        {
          "name": "w22",
          "shape": [
            96
          ],
          "dtype": "float32"
        },
        {
          "name": "w23",
          "shape": [
            96
          ],
          "dtype": "float32"
        },
        {
          "name": "w24",
          "shape": [
            96
          ],
          "dtype": "float32"
        },
        {
          "name": "w25",
          "shape": [
            1,
            1,
            96,
            24
          ],
          "dtype": "float32"
        },
        {
          "name": "w26",
          "shape": [
            24
          ],
          "dtype": "float32"
        },
        {
          "name": "w27",
          "shape": [
            24
          ],
          "dtype": "float32"
        },
        {
          "name": "w28",
          "shape": [
            24
          ],
          "dtype": "float32"
        },
        {
          "name": "w29",
          "shape": [
            24
          ],
          "dtype": "float32"
        },
        {
          "name": "w30",
          "shape": [
            1,
            1,
            24,
            144
          ],
          "dtype": "float32"
        },
        {
          "name": "w31",
          "shape": [
            144
          ],
          "dtype": "float32"
        },
        {
          "name": "w32",
          "shape": [
            144
          ],
          "dtype": "float32"
        },
        {
          "name": "w33",
          "shape": [
            144
          ],
          "dtype": "float32"
        },
        {
          "name": "w34",
          "shape": [
            144
          ],
          "dtype": "float32"
        },
        {
          "name": "w35",
          "shape": [
            3,
            3,
            144,
            1
          ],
          "dtype": "float32"
        },
        {
          "name": "w36",
          "shape": [
            144
          ],
          "dtype": "float32"
        },
        {
          "name": "w37",
          "shape": [
            144
          ],
          "dtype": "float32"
        },
        {
          "name": "w38",
          "shape": [
            144
          ],
          "dtype": "float32"
        },
        {
          "name": "w39",
          "shape": [
            144
          ],
          "dtype": "float32"
        },
        {
          "name": "w40",
          "shape": [
            1,
            1,
            144,
            24
          ],
          "dtype": "float32"
        },
        {
          "name": "w41",
          "shape": [
            24
          ],
          "dtype": "float32"
        },
        {
          "name": "w42",
          "shape": [
            24
          ],
          "dtype": "float32"
        },
        {
          "name": "w43",
          "shape": [
            24
          ],
          "dtype": "float32"
        },
        {
          "name": "w44",
          "shape": [
            24
          ],
          "dtype": "float32"
        },
        {
          "name": "w45",
          "shape": [
            1,
            1,
            24,
            144
          ],
          "dtype": "float32"
        },
        {
          "name": "w46",
          "shape": [
            144
          ],
          "dtype": "float32"
        },
        {
          "name": "w47",
          "shape": [
            144
          ],
          "dtype": "float32"
        },
        {
          "name": "w48",
          "shape": [
            144
          ],
          "dtype": "float32"
        },
        {
          "name": "w49",
          "shape": [
            144
          ],
          "dtype": "float32"
        },
        {
          "name": "w50",
          "shape": [
            3,
            3,
            144,
            1
          ],
          "dtype": "float32"
        },
        {
          "name": "w51",
          "shape": [
            144
          ],
          "dtype": "float32"
        },
        {
          "name": "w52",
          "shape": [
            144
          ],
          "dtype": "float32"
        },
        {
          "name": "w53",
          "shape": [
            144
          ],
          "dtype": "float32"
        },
        {
          "name": "w54",
          "shape": [
            144
          ],
          "dtype": "float32"
        },
        {
          "name": "w55",
          "shape": [
            1,
            1,
            144,
            32
          ],
          "dtype": "float32"
        },
        {
          "name": "w56",
          "shape": [
            32
          ],
          "dtype": "float32"
        },
        {
          "name": "w57",
          "shape": [
            32
          ],
          "dtype": "float32"
        },
        {
          "name": "w58",
          "shape": [
            32
          ],
          "dtype": "float32"
        },
        {
          "name": "w59",
          "shape": [
            32
          ],
          "dtype": "float32"
        },
        {
          "name": "w60",
          "shape": [
            1,
            1,
            32,
            192
          ],
          "dtype": "float32"
        },
        {
          "name": "w61",
          "shape": [
            192
          ],
          "dtype": "float32"
        },
        {
          "name": "w62",
          "shape": [
            192
          ],
          "dtype": "float32"
        },
        {
          "name": "w63",
          "shape": [
            192
          ],
          "dtype": "float32"
        },
        {
          "name": "w64",
          "shape": [
            192
          ],
          "dtype": "float32"
        },
        {
          "name": "w65",
          "shape": [
            3,
            3,
            192,
            1
          ],
          "dtype": "float32"
        },
        {
          "name": "w66",
          "shape": [
            192
          ],
          "dtype": "float32"
        },
        {
          "name": "w67",
          "shape": [
            192
          ],
          "dtype": "float32"
        },
        {
          "name": "w68",
          "shape": [
            192
          ],
          "dtype": "float32"
        },
        {
          "name": "w69",
          "shape": [
            192
          ],
          "dtype": "float32"
        },
        {
          "name": "w70",
          "shape": [
            1,
            1,
            192,
            32
          ],
          "dtype": "float32"
        },
        {
          "name": "w71",
          "shape": [
            32
          ],
          "dtype": "float32"
        },
        {
          "name": "w72",
          "shape": [
            32
          ],
          "dtype": "float32"
        },
        {
          "name": "w73",
          "shape": [
            32
          ],
          "dtype": "float32"
        },
        {
          "name": "w74",
          "shape": [
            32
          ],
          "dtype": "float32"
        },
        {
          "name": "w75",
          "shape": [
            1,
            1,
            32,
            192
          ],
          "dtype": "float32"
        },
        {
          "name": "w76",
          "shape": [
            192
          ],
          "dtype": "float32"
        },
        {
          "name": "w77",
          "shape": [
            192
          ],
          "dtype": "float32"
        },
        {
          "name": "w78",
          "shape": [
            192
          ],
          "dtype": "float32"
        },
        {
          "name": "w79",
          "shape": [
            192
          ],
          "dtype": "float32"
        },
        {
          "name": "w80",
          "shape": [
            3,
            3,
            192,
            1
          ],
          "dtype": "float32"
        },
        {
          "name": "w81",
          "shape": [
            192
          ],
          "dtype": "float32"
        },
        {
          "name": "w82",
          "shape": [
            192
          ],
          "dtype": "float32"
        },
        {
          "name": "w83",
          "shape": [
            192
          ],
          "dtype": "float32"
        },
        {
          "name": "w84",
          "shape": [
            192
          ],
          "dtype": "float32"
        },
        {
          "name": "w85",
          "shape": [
            1,
            1,
            192,
            32
          ],
          "dtype": "float32"
        },
        {
          "name": "w86",
          "shape": [
            32
          ],
          "dtype": "float32"
        },
        {
          "name": "w87",
          "shape": [
            32
          ],
          "dtype": "float32"
        },
        {
          "name": "w88",
          "shape": [
            32
          ],
          "dtype": "float32"
        },
        {
          "name": "w89",
          "shape": [
            32
          ],
          "dtype": "float32"
        },
        {
          "name": "w90",
          "shape": [
            1,
            1,
            32,
            192
          ],
          "dtype": "float32"
        },
        {
          "name": "w91",
          "shape": [
            192
          ],
          "dtype": "float32"
        },
        {
          "name": "w92",
          "shape": [
            192
          ],
          "dtype": "float32"
        },
        {
          "name": "w93",
          "shape": [
            192
          ],
          "dtype": "float32"
        },
        {
          "name": "w94",
          "shape": [
            192
          ],
          "dtype": "float32"
        },
        {
          "name": "w95",
          "shape": [
            3,
            3,
            192,
            1
          ],
          "dtype": "float32"
        },
        {
          "name": "w96",
          "shape": [
            192
          ],
          "dtype": "float32"
        },
        {
          "name": "w97",
          "shape": [
            192
          ],
          "dtype": "float32"
        },
        {
          "name": "w98",
          "shape": [
            192
          ],
          "dtype": "float32"
        },
        {
          "name": "w99",
          "shape": [
            192
          ],
          "dtype": "float32"
        },
        {
          "name": "w100",
          "shape": [
            1,
            1,
            192,
            64
          ],
          "dtype": "float32"
        },
        {
          "name": "w101",
          "shape": [
            64
          ],
          "dtype": "float32"
        },
        {
          "name": "w102",
          "shape": [
            64
          ],
          "dtype": "float32"
        },
        {
          "name": "w103",
          "shape": [
            64
          ],
          "dtype": "float32"
        },
        {
          "name": "w104",
          "shape": [
            64
          ],
          "dtype": "float32"
        },
        {
          "name": "w105",
          "shape": [
            1,
            1,
            64,
            384
          ],
          "dtype": "float32"
        },
        {
          "name": "w106",
          "shape": [
            384
          ],
          "dtype": "float32"
        },
        {
          "name": "w107",
          "shape": [
            384
          ],
          "dtype": "float32"
        },
        {
          "name": "w108",
          "shape": [
            384
          ],
          "dtype": "float32"
        },
        {
          "name": "w109",
          "shape": [
            384
          ],
          "dtype": "float32"
        },
        {
          "name": "w110",
          "shape": [
            3,
            3,
            384,
            1
          ],
          "dtype": "float32"
        },
        {
          "name": "w111",
          "shape": [
            384
          ],
          "dtype": "float32"
        },
        {
          "name": "w112",
          "shape": [
            384
          ],
          "dtype": "float32"
        },
        {
          "name": "w113",
          "shape": [
            384
          ],
          "dtype": "float32"
        },
        {
          "name": "w114",
          "shape": [
            384
          ],
          "dtype": "float32"
        },
        {
          "name": "w115",
          "shape": [
            1,
            1,
            384,
            64
          ],
          "dtype": "float32"
        },
        {
          "name": "w116",
          "shape": [
            64
          ],
          "dtype": "float32"
        },
        {
          "name": "w117",
          "shape": [
            64
          ],
          "dtype": "float32"
        },
        {
          "name": "w118",
          "shape": [
            64
          ],
          "dtype": "float32"
        },
        {
          "name": "w119",
          "shape": [
            64
          ],
          "dtype": "float32"
        },
        {
          "name": "w120",
          "shape": [
            1,
            1,
            64,
            384
          ],
          "dtype": "float32"
        },
        {
          "name": "w121",
          "shape": [
            384
          ],
          "dtype": "float32"
        },
        {
          "name": "w122",
          "shape": [
            384
          ],
          "dtype": "float32"
        },
        {
          "name": "w123",
          "shape": [
            384
          ],
          "dtype": "float32"
        },
        {
          "name": "w124",
          "shape": [
            384
          ],
          "dtype": "float32"
        },
        {
          "name": "w125",
          "shape": [
            3,
            3,
            384,
            1
          ],
          "dtype": "float32"
        },
        {
          "name": "w126",
          "shape": [
            384
          ],
          "dtype": "float32"
        },
        {
          "name": "w127",
          "shape": [
            384
          ],
          "dtype": "float32"
        },
        {
          "name": "w128",
          "shape": [
            384
          ],
          "dtype": "float32"
        },
        {
          "name": "w129",
          "shape": [
            384
          ],
          "dtype": "float32"
        },
        {
          "name": "w130",
          "shape": [
            1,
            1,
            384,
            64
          ],
          "dtype": "float32"
        },
        {
          "name": "w131",
          "shape": [
            64
          ],
          "dtype": "float32"
        },
        {
          "name": "w132",
          "shape": [
            64
          ],
          "dtype": "float32"
        },
        {
          "name": "w133",
          "shape": [
            64
          ],
          "dtype": "float32"
        },
        {
          "name": "w134",
          "shape": [
            64
          ],
          "dtype": "float32"
        },
        {
          "name": "w135",
          "shape": [
            1,
            1,
            64,
            384
          ],
          "dtype": "float32"
        },
        {
          "name": "w136",
          "shape": [
            384
          ],
          "dtype": "float32"
        },
        {
          "name": "w137",
          "shape": [
            384
          ],
          "dtype": "float32"
        },
        {
          "name": "w138",
          "shape": [
            384
          ],
          "dtype": "float32"
        },
        {
          "name": "w139",
          "shape": [
            384
          ],
          "dtype": "float32"
        },
        {
          "name": "w140",
          "shape": [
            3,
            3,
            384,
            1
          ],
          "dtype": "float32"
        },
        {
          "name": "w141",
          "shape": [
            384
          ],
          "dtype": "float32"
        },
        {
          "name": "w142",
          "shape": [
            384
          ],
          "dtype": "float32"
        },
        {
          "name": "w143",
          "shape": [
            384
          ],
          "dtype": "float32"
        },
        {
          "name": "w144",
          "shape": [
            384
          ],
          "dtype": "float32"
        },
        {
          "name": "w145",
          "shape": [
            1,
            1,
            384,
            64
          ],
          "dtype": "float32"
        },
        {
          "name": "w146",
          "shape": [
            64
          ],
          "dtype": "float32"
        },
        {
          "name": "w147",
          "shape": [
            64
          ],
          "dtype": "float32"
        },
        {
          "name": "w148",
          "shape": [
            64
          ],
          "dtype": "float32"
        },
        {
          "name": "w149",
          "shape": [
            64
          ],
          "dtype": "float32"
        },
        {
          "name": "w150",
          "shape": [
            1,
            1,
            64,
            384
          ],
          "dtype": "float32"
        },
        {
          "name": "w151",
          "shape": [
            384
          ],
          "dtype": "float32"
        },
        {
          "name": "w152",
          "shape": [
            384
          ],
          "dtype": "float32"
        },
        {
          "name": "w153",
          "shape": [
            384
          ],
          "dtype": "float32"
        },
        {
          "name": "w154",
          "shape": [
            384
          ],
          "dtype": "float32"
        },
        {
          "name": "w155",
          "shape": [
            3,
            3,
            384,
            1
          ],
          "dtype": "float32"
        },
        {
          "name": "w156",
          "shape": [
            384
          ],
          "dtype": "float32"
        },
        {
          "name": "w157",
          "shape": [
            384
          ],
          "dtype": "float32"
        },
        {
          "name": "w158",
          "shape": [
            384
          ],
          "dtype": "float32"
        },
        {
          "name": "w159",
          "shape": [
            384
          ],
          "dtype": "float32"
        },
        {
          "name": "w160",
          "shape": [
            1,
            1,
            384,
            96
          ],
          "dtype": "float32"
        },
        {
          "name": "w161",
          "shape": [
            96
          ],
          "dtype": "float32"
        },
        {
          "name": "w162",
          "shape": [
            96
          ],
          "dtype": "float32"
        },
        {
          "name": "w163",
          "shape": [
            96
          ],
          "dtype": "float32"
        },
        {
          "name": "w164",
          "shape": [
            96
          ],
          "dtype": "float32"
        },
        {
          "name": "w165",
          "shape": [
            1,
            1,
            96,
            576
          ],
          "dtype": "float32"
        },
        {
          "name": "w166",
          "shape": [
            576
          ],
          "dtype": "float32"
        },
        {
          "name": "w167",
          "shape": [
            576
          ],
          "dtype": "float32"
        },
        {
          "name": "w168",
          "shape": [
            576
          ],
          "dtype": "float32"
        },
        {
          "name": "w169",
          "shape": [
            576
          ],
          "dtype": "float32"
        },
        {
          "name": "w170",
          "shape": [
            3,
            3,
            576,
            1
          ],
          "dtype": "float32"
        },
        {
          "name": "w171",
          "shape": [
            576
          ],
          "dtype": "float32"
        },
        {
          "name": "w172",
          "shape": [
            576
          ],
          "dtype": "float32"
        },
        {
          "name": "w173",
          "shape": [
            576
          ],
          "dtype": "float32"
        },
        {
          "name": "w174",
          "shape": [
            576
          ],
          "dtype": "float32"
        },
        {
          "name": "w175",
          "shape": [
            1,
            1,
            576,
            96
          ],
          "dtype": "float32"
        },
        {
          "name": "w176",
          "shape": [
            96
          ],
          "dtype": "float32"
        },
        {
          "name": "w177",
          "shape": [
            96
          ],
          "dtype": "float32"
        },
        {
          "name": "w178",
          "shape": [
            96
          ],
          "dtype": "float32"
        },
        {
          "name": "w179",
          "shape": [
            96
          ],
          "dtype": "float32"
        },
        {
          "name": "w180",
          "shape": [
            1,
            1,
            96,
            576
          ],
          "dtype": "float32"
        },
        {
          "name": "w181",
          "shape": [
            576
          ],
          "dtype": "float32"
        },
        {
          "name": "w182",
          "shape": [
            576
          ],
          "dtype": "float32"
        },
        {
          "name": "w183",
          "shape": [
            576
          ],
          "dtype": "float32"
        },
        {
          "name": "w184",
          "shape": [
            576
          ],
          "dtype": "float32"
        },
        {
          "name": "w185",
          "shape": [
            3,
            3,
            576,
            1
          ],
          "dtype": "float32"
        },
        {
          "name": "w186",
          "shape": [
            576
          ],
          "dtype": "float32"
        },
        {
          "name": "w187",
          "shape": [
            576
          ],
          "dtype": "float32"
        },
        {
          "name": "w188",
          "shape": [
            576
          ],
          "dtype": "float32"
        },
        {
          "name": "w189",
          "shape": [
            576
          ],
          "dtype": "float32"
        },
        {
          "name": "w190",
          "shape": [
            1,
            1,
            576,
            96
          ],
          "dtype": "float32"
        },
        {
          "name": "w191",
          "shape": [
            96
          ],
          "dtype": "float32"
        },
        {
          "name": "w192",
          "shape": [
            96
          ],
          "dtype": "float32"
        },
        {
          "name": "w193",
          "shape": [
            96
          ],
          "dtype": "float32"
        },
        {
          "name": "w194",
          "shape": [
            96
          ],
          "dtype": "float32"
        },
        {
          "name": "w195",
          "shape": [
            1,
            1,
            96,
            576
          ],
          "dtype": "float32"
        },
        {
          "name": "w196",
          "shape": [
            576
          ],
          "dtype": "float32"
        },
        {
          "name": "w197",
          "shape": [
            576
          ],
          "dtype": "float32"
        },
        {
          "name": "w198",
          "shape": [
            576
          ],
          "dtype": "float32"
        },
        {
          "name": "w199",
          "shape": [
            576
          ],
          "dtype": "float32"
        },
        {
          "name": "w200",
          "shape": [
            3,
            3,
            576,
            1
          ],
          "dtype": "float32"
        },
        {
          "name": "w201",
          "shape": [
            576
          ],
          "dtype": "float32"
        },
        {
          "name": "w202",
          "shape": [
            576
          ],
          "dtype": "float32"
        },
        {
          "name": "w203",
          "shape": [
            576
          ],
          "dtype": "float32"
        },
        {
          "name": "w204",
          "shape": [
            576
          ],
          "dtype": "float32"
        },
        {
          "name": "w205",
          "shape": [
            1,
            1,
            576,
            160
          ],
          "dtype": "float32"
        },
        {
          "name": "w206",
          "shape": [
            160
          ],
          "dtype": "float32"
        },
        {
          "name": "w207",
          "shape": [
            160
          ],
          "dtype": "float32"
        },
        {
          "name": "w208",
          "shape": [
            160
          ],
          "dtype": "float32"
        },
        {
          "name": "w209",
          "shape": [
            160
          ],
          "dtype": "float32"
        },
        {
          "name": "w210",
          "shape": [
            1,
            1,
            160,
            960
          ],
          "dtype": "float32"
        },
        {
          "name": "w211",
          "shape": [
            960
          ],
          "dtype": "float32"
        },
        {
          "name": "w212",
          "shape": [
            960
          ],
          "dtype": "float32"
        },
        {
          "name": "w213",
          "shape": [
            960
          ],
          "dtype": "float32"
        },
        {
          "name": "w214",
          "shape": [
            960
          ],
          "dtype": "float32"
        },
        {
          "name": "w215",
          "shape": [
            3,
            3,
            960,
            1
          ],
          "dtype": "float32"
        },
        {
          "name": "w216",
          "shape": [
            960
          ],
          "dtype": "float32"
        },
        {
          "name": "w217",
          "shape": [
            960
          ],
          "dtype": "float32"
        },
        {
          "name": "w218",
          "shape": [
            960
          ],
          "dtype": "float32"
        },
        {
          "name": "w219",
          "shape": [
            960
          ],
          "dtype": "float32"
        },
        {
          "name": "w220",
          "shape": [
            1,
            1,
            960,
            160
          ],
          "dtype": "float32"
        },
        {
          "name": "w221",
          "shape": [
            160
          ],
          "dtype": "float32"
        },
        {
          "name": "w222",
          "shape": [
            160
          ],
          "dtype": "float32"
        },
        {
          "name": "w223",
          "shape": [
            160
          ],
          "dtype": "float32"
        },
        {
          "name": "w224",
          "shape": [
            160
          ],
          "dtype": "float32"
        },
        {
          "name": "w225",
          "shape": [
            1,
            1,
            160,
            960
          ],
          "dtype": "float32"
        },
        {
          "name": "w226",
          "shape": [
            960
          ],
          "dtype": "float32"
        },
        {
          "name": "w227",
          "shape": [
            960
          ],
          "dtype": "float32"
        },
        {
          "name": "w228",
          "shape": [
            960
          ],
          "dtype": "float32"
        },
        {
          "name": "w229",
          "shape": [
            960
          ],
          "dtype": "float32"
        },
        {
          "name": "w230",
          "shape": [
            3,
            3,
            960,
            1
          ],
          "dtype": "float32"
        },
        {
          "name": "w231",
          "shape": [
            960
          ],
          "dtype": "float32"
        },
        {
          "name": "w232",
          "shape": [
            960
          ],
          "dtype": "float32"
        },
        {
          "name": "w233",
          "shape": [
            960
          ],
          "dtype": "float32"
        },
        {
          "name": "w234",
          "shape": [
            960
          ],
          "dtype": "float32"
        },
        {
          "name": "w235",
          "shape": [
            1,
            1,
            960,
            160
          ],
          "dtype": "float32"
        },
        {
          "name": "w236",
          "shape": [
            160
          ],
          "dtype": "float32"
        },
        {
          "name": "w237",
          "shape": [
            160
          ],
          "dtype": "float32"
        },
        {
          "name": "w238",
          "shape": [
            160
          ],
          "dtype": "float32"
        },
        {
          "name": "w239",
          "shape": [
            160
          ],
          "dtype": "float32"
        },
        {
          "name": "w240",
          "shape": [
            1,
            1,
            160,
            960
          ],
          "dtype": "float32"
        },
        {
          "name": "w241",
          "shape": [
            960
          ],
          "dtype": "float32"
        },
        {
          "name": "w242",
          "shape": [
            960
          ],
          "dtype": "float32"
        },
        {
          "name": "w243",
          "shape": [
            960
          ],
          "dtype": "float32"
        },
        {
          "name": "w244",
          "shape": [
            960
          ],
          "dtype": "float32"
        },
        {
          "name": "w245",
          "shape": [
            3,
            3,
            960,
            1
          ],
          "dtype": "float32"
        },
        {
          "name": "w246",
          "shape": [
            960
          ],
          "dtype": "float32"
        },
        {
          "name": "w247",
          "shape": [
            960
          ],
          "dtype": "float32"
        },
        {
          "name": "w248",
          "shape": [
            960
          ],
          "dtype": "float32"
        },
        {
          "name": "w249",
          "shape": [
            960
          ],
          "dtype": "float32"
        },
        {
          "name": "w250",
          "shape": [
            1,
            1,
            960,
            320
          ],
          "dtype": "float32"
        },
        {
          "name": "w251",
          "shape": [
            320
          ],
          "dtype": "float32"
        },
        {
          "name": "w252",
          "shape": [
            320
          ],
          "dtype": "float32"
        },
        {
          "name": "w253",
          "shape": [
            320
          ],
          "dtype": "float32"
        },
        {
          "name": "w254",
          "shape": [
            320
          ],
          "dtype": "float32"
        },
        {
          "name": "w255",
          "shape": [
            1,
            1,
            320,
            1280
          ],
          "dtype": "float32"
        },
        {
          "name": "w256",
          "shape": [
            1280
          ],
          "dtype": "float32"
        },
        {
          "name": "w257",
          "shape": [
            1280
          ],
          "dtype": "float32"
        },
        {
          "name": "w258",
          "shape": [
            1280
          ],
          "dtype": "float32"
        },
        {
          "name": "w259",
          "shape": [
            1280
          ],
          "dtype": "float32"
        },
        {
          "name": "w260",
          "shape": [
            1280,
            512
          ],
          "dtype": "float32"
        },
        {
          "name": "w261",
          "shape": [
            512
          ],
          "dtype": "float32"
        },
        {
          "name": "w262",
          "shape": [
            512,
            151
          ],
          "dtype": "float32"
        },
        {
          "name": "w263",
          "shape": [
            151
          ],
          "dtype": "float32"
        }
      ]
    }
  ],
  "format": "layers-model",
  "generatedBy": "keras2tfjs",
  "convertedBy": "convert_fixed.py"
}